agent.policy.model (torch_old, 14314 bytes, 7 tensors)

log_sigma f4 [4]
0.042637117 0.021256087 -0.31034154 -0.31749216
00000000: 42a4 2e3d 3f21 ae3c 16e5 9ebe 558e a2be

weight f4 [32, 33]
0.4582788 0.11974521 0.10675632 0.091224216 0.2636634 0.07231942 0.13824832 0.06992617
-0.2682075 -0.12140887 -0.14403921 -0.0919736 0.20558181 -0.32254165 0.41635665 0.13431127
0.31541675 0.4159717 -0.20213684 0.361851 0.26043034 -0.5190061 0.6409061 -0.35065797
-0.44560072 0.14132376 0.05738499 0.017559683 0.03651093 -0.059792608 -0.09287032 -0.10796144
0.83853287 -0.046957746 0.04120773 -0.40200064 -0.1645591 0.030552875 0.13393565 -0.38321528
0.027995918 0.020602707 -0.14149138 -0.13523397 -0.48829272 -0.21089941 -0.20379739 -0.36527386
0.11173316 0.3057667 -0.109992795 0.12025799 -0.007753164 0.052620042 0.3799293 -0.13795012
-0.21241245 -0.03734788 -0.06413104 0.24766779 0.26680356 0.43132117 -0.07964536 -0.20583153
-0.069961615 1.4689157 -0.24711716 0.035813868 -0.17237988 0.1306364 -0.2498965 0.23570779
0.18830624 -0.16197439 -0.6558483 0.11956563 0.056109045 0.09300372 0.12946308 -0.3260986
0.17797701 0.15195476 0.07255946 0.1091885 -0.08084792 0.13088968 -0.14538153 0.03218588
-0.25700268 -0.12728256 -0.012745463 0.46307155 -0.18579061 0.003919486 -0.29507977 -0.16281517
0.0022068834 -0.020851359 -1.3506595 -0.13789877 0.4760647 0.35572198 -0.023618566 -0.28879464
0.54890275 0.7310958 0.07709109 -0.10036957 -0.04230748 -0.026925424 0.8007394 -0.36142585
0.10621055 0.51175797 0.34701878 0.26594016 0.404284 0.18306366 -0.032253932 0.08954086
0.3690029 0.050007865 0.07850878 0.14423393 0.08664408 0.01028478 0.06832435 0.22078305
-0.04428576 -0.1342723 0.14321 0.5614367 -0.49130705 0.082660176 -0.024096357 -0.15964116
-0.22215293 -0.09055312 -0.0826039 -0.14573503 0.44769305 0.0047642537 0.03521161 -0.020369861
-0.04275402 -0.113248795 0.45969188 -0.103831574 -0.11034708 0.055164848 0.0031615198 -0.4737787
0.05303238 0.6788016 0.22341427 0.26618877 0.6139734 0.020699019 -0.11327182 -0.035679914
-0.105335236 -0.028728873 0.015637625 -0.13485211 -0.5881979 0.5679025 -0.17751303 -0.24463347
0.2186292 0.22941884 -0.5217708 -0.39620173 0.08626501 0.09477572 0.3580602 0.6973223
0.44529969 -0.2871846 -0.025349507 0.32764727 0.13469239 0.01627776 0.23560996 -0.29121578
-0.1376495 -0.023712588 -0.08425233 0.7245476 -0.27292764 -0.039235316 -0.16020726 0.08678687
-0.17649339 0.013898107 -0.08582627 0.051955875 0.10561851 0.3519218 -0.5480052 -0.07504619
-0.44668686 -0.06704278 -0.438361 0.048058614 -0.076803945 0.3776494 0.40212587 -0.14740525
0.063567415 0.062426813 -0.08694763 0.6082584 -0.20228632 0.109341 0.23612142 0.032990962
0.4097099 0.04246014 0.45681983 -0.2188275 -0.14661455 0.06567564 -0.080141746 -0.104130946
-0.25289562 -0.0054938034 0.13439035 0.03865856 -0.022251183 0.13687643 -0.3286998 0.0038676602
-0.007840896 -0.009239762 0.013296855 -0.043386225 0.75322855 -0.11233846 0.1856897 -0.24871527
0.08628463 0.20214878 -0.11140932 0.059952438 0.10382888 0.3117955 -0.1968582 0.06495666
-0.25897294 -0.063976124 -0.024729384 -0.19120577 -0.033195328 -0.2424413 0.1818809 -0.006151009
00000000: 85a3 ea3e fa3c f53d 0fa3 da3d c3d3 ba3d
00000010: e4fe 863e 341c 943d f890 0d3e 7435 8f3d
00000020: 7e52 89be 37a5 f8bd 047f 13be a85c bcbd
00000030: 0a84 523e 2e24 a5be b32c d53e e588 093e
00000040: 4e7e a13e 3efa d43e f6fc 4ebe 8944 b93e
00000050: 2057 853e 95dd 04bf 6c12 243f 7189 b3be
00000060: c725 e4be 2db7 103e 860c 6b3d 53d9 8f3c
00000070: 7c8c 153d 18e9 74bd cb32 bebd e31a ddbd
00000080: 17aa 563f c456 40bd 70c9 283d 07d3 cdbe
00000090: 2e82 28be 064a fa3c 6d26 093e cb34 c4be
000000a0: b257 e53c 02c7 a83c 1ee3 10be c67a 0abe
000000b0: 8101 fabe 04f6 57be 43b0 50be 2d05 bbbe
000000c0: 5bd4 e43d 748d 9c3e e743 e1bd d249 f63d
000000d0: 410e febb 1d88 573d 1886 c23e cc42 0dbe
000000e0: a682 59be 17fa 18bd 2257 83bd a09c 7d3e
000000f0: 7a9a 883e 21d6 dc3e 1b1d a3bd 80c5 52be
00000100: 0948 8fbd 6e05 bc3f 480c 7dbe 90b1 123d
00000110: 5a84 30be 8cc5 053e dee4 7fbe 625d 713e
00000120: 5ad3 403e 9ddc 25be ade5 27bf d3de f43d
00000130: 99d2 653d bc78 be3d f891 043e 65f6 a6be
00000140: 9b3f 363e 079a 1b3e 0e9a 943d 389e df3d
00000150: 9893 a5bd f207 063e e5de 14be 57d5 033d
00000160: db95 83be 5c56 02be 59d2 50bc b717 ed3e
00000170: e53f 3ebe 086f 803b b214 97be 05b9 26be
00000180: 5ca1 103b 78d0 aabc 69e2 acbf 5635 0dbe
00000190: c1be f33e 3121 b63e b97b c1bc e4dc 93be
000001a0: e484 0c3f 1829 3b3f efe1 9d3d 908e cdbd
000001b0: 9c4a 2dbd b592 dcbc 42fd 4c3f cf0c b9be
000001c0: eb84 d93d 9202 033f 72ac b13e 4f29 883e
000001d0: 50fe ce3e 0a75 3b3e b31c 04bd 3361 b73d
000001e0: f3ed bc3e 0cd5 4c3d 36c9 a03d 0fb2 133e
000001f0: 7472 b13d 7e81 283c a3ed 8b3d f414 623e
00000200: fc64 35bd ae7e 09be a4a5 123e 51ba 0f3f
00000210: 998c fbbe bd49 a93d b965 c5bc f978 23be
00000220: 0f7c 63be ea73 b9bd 3c2c a9bd 903b 15be
00000230: 0638 e53e 751d 9c3b 0d3a 103d b2de a6bc
00000240: d71e 2fbd fcee e7bd bc5c eb3e a6a5 d4bd
00000250: a6fd e1bd 89f4 613d 8031 4f3b 1f93 f2be
00000260: 7b38 593d f1c5 2d3f b6c6 643e e549 883e
00000270: 5c2d 1d3f fd90 a93c 0efb e7bd 1a25 12bd
00000280: 00ba d7bd d058 ebbc 7a1a 803c ac16 0abe
00000290: 2394 16bf 0f62 113f fac5 35be 3281 7abe
000002a0: 55e0 5f3e c6ec 6a3e c592 05bf f4da cabe
000002b0: b6ab b03d c619 c23d ab53 b73e b783 323f
000002c0: 52fe e33e dc09 93be c5a9 cfbc 62c1 a73e
000002d0: cdec 093e f058 853c bd43 713e 3c1a 95be
000002e0: fef3 0cbe e740 c2bc 7c8c acbd f47b 393f
000002f0: 2cbd 8bbe 36b5 20bd 5f0d 24be 51bd b13d
00000300: afba 34be e3b4 633c afc5 afbd afcf 543d
00000310: 844e d83d 182f b43e 124a 0cbf d1b1 99bd
00000320: 24b4 e4be ba4d 89bd da70 e0be 1cd9 443d
00000330: 634b 9dbd 435b c13e 71e3 cd3e 67f1 16be
00000340: a22f 823d 42b3 7f3d 9911 b2bd d3b6 1b3f
00000350: 2524 4fbe 2dee df3d d0c9 713e 8821 073d
00000360: 7fc5 d13e afea 2d3d 4ae4 e93e 5114 60be
00000370: 2022 16be f380 863d 5b21 a4bd 9b42 d5bd
00000380: 897b 81be 5d05 b4bb a09d 093e 7058 1e3d
00000390: 1d48 b6bc 5629 0c3e 574b a8be 9278 7d3b
000003a0: 1a77 00bc 5f62 17bc 0ddb 593c c1b5 31bd
000003b0: 96d3 403f b511 e6bd 7125 3e3e 37af 7ebe
000003c0: ffb5 b03d 1700 4f3e 922a e4bd b090 753d
000003d0: 3ca4 d43d a9a3 9f3e 3295 49be ff07 853d
000003e0: 1a98 84be ea05 83bd 4795 cabc 72cb 43be
000003f0: d3f7 07bd 8842 78be fd3e 3a3e 678e c9bb

bias f4 [32]
0.009742172 -0.34124362 0.11429218 0.08425438 -0.13818735 -0.14217459 -0.19456773 -0.11653582
-0.20780054 0.022011345 -0.44457653 -0.19403839 0.019327614 0.08003477 -0.11958617 -0.22340664
0.1616199 -0.17084588 -0.038498823 0.14037308 -0.17756519 -0.36112067 -0.009439893 0.39569777
-0.20346716 -0.1109524 0.13830583 -0.00480262 -0.17144808 -0.21610032 0.09375651 -0.24918452
00000000: a29d 1f3c 7cb7 aebe 0512 ea3d 8f8d ac3d
00000010: fc80 0dbe 3796 11be c33c 47be 55aa eebd
00000020: aac9 54be 2351 b43c 899f e3be 00b2 46be
00000030: f254 9e3c 45e9 a33d 98e9 f4bd b6c4 64be
00000040: b07f 253e 39f2 2ebe f1b0 1dbd f6bd 0f3e
00000050: a6d3 35be cfe4 b8be c8a9 1abc e698 ca3e
00000060: b259 50be 033b e3bd 0ba0 0d3e 4c5f 9dbb
00000070: 1690 2fbe 6749 5dbe 6a03 c03d 3a2a 7fbe

weight f4 [32, 32]
0.116106264 -0.0013662209 0.22397698 0.30251217 -0.248155 0.32258618 -0.5844086 0.17500646
-0.46516314 0.12254619 0.10010876 -0.5688045 0.22869085 0.32271552 -0.21221101 -0.015887247
-0.07171721 -0.041136958 0.030174846 0.1235073 0.13745254 -0.024967723 0.23399389 0.1011358
0.09665242 0.32317457 -0.6702124 0.015146296 -0.17946821 -0.101595335 -0.17708215 -0.89415
-0.013207114 0.14729537 0.06185642 0.15675329 -0.09059388 -0.23679377 -0.100366645 -0.2750419
0.24647003 0.30689588 0.104492314 0.2857683 -0.57673156 0.00928404 0.0935416 0.050750993
0.35289273 0.41080388 0.066413715 -0.111841306 -0.25981885 -0.08056751 -0.2775093 -0.37991643
0.16520333 -0.15975882 0.15729795 -0.118234575 -0.14838119 -0.47575292 -0.27442393 0.42008603
0.059703544 0.040589765 0.15971282 0.34046876 -0.45797613 -0.4789934 0.31603923 -0.050352704
-0.3019674 -0.18425797 0.39170966 0.18494964 -0.041292883 -0.43682206 0.12776431 0.035748918
-0.22910456 -0.14399135 -0.45064393 0.04055566 0.19456382 0.33454427 -0.40032625 0.22260806
0.43792316 -0.365073 0.17569612 -0.19194333 0.17956345 0.17979021 0.09565337 -0.56821406
0.4907769 -0.8856379 0.119362526 -0.18463528 -0.25252476 -0.1343118 0.06681608 -0.74498266
0.19169612 0.13537273 -0.1472777 0.010417201 -0.38703534 0.22102915 -0.92145914 0.018999448
0.0414179 -0.32158917 0.32534266 0.08592917 -0.5591121 -0.17808665 0.0870099 0.11609742
0.35472286 -0.47334242 -0.13969049 0.23411112 -0.5283757 0.070075355 -0.07310233 -0.13040642
0.19120379 -0.1921061 -0.6955705 -0.87532306 -0.021523925 -0.36489233 -0.6867531 0.35144484
-0.027043521 -0.059373416 -0.4203609 0.0714085 -0.039114133 -0.31876874 -1.0925169 -0.04675015
0.47681755 0.27082002 -0.16563058 0.19154415 -0.11191974 0.30732718 0.028458605 -0.15914412
-0.6867334 -0.07093636 0.4641621 -0.46145046 -0.0839629 0.0879078 -0.03041513 0.1017547
-0.21972989 -0.13890642 0.1884774 0.18253519 0.1991832 -0.65011364 -0.09397323 0.7272789
0.078732684 -0.58337086 -0.05452913 -0.33549193 -0.070989564 0.15782095 -0.13638982 0.09674989
-0.21232145 0.16856535 -0.037748564 -0.32554567 -0.023665806 -0.37900352 0.0015040453 0.41293713
-0.29921973 -0.43140805 -0.24441093 -0.27791017 -0.021292755 0.32723948 0.10913596 0.27611086
-0.28829625 -0.0029130038 0.08088181 -0.4096103 -0.5300118 -0.12930693 -0.0023877094 0.08882068
-0.200242 -0.28807473 -0.4602523 0.64996225 -0.250946 -0.32542953 0.16087633 -0.273141
0.15288189 -0.024666993 0.032644965 0.27513227 -0.035648916 0.24140298 -0.4363687 0.055384073
0.48354402 -0.49341586 -0.0050886148 -0.57412565 -0.34416127 -0.06304607 0.080028 0.20432664
-0.22467537 0.35473716 -0.55809754 -0.0706588 -0.13594824 0.027360866 0.48177192 -0.09113294
-0.32061693 0.20078419 -0.33609673 -0.1799457 0.31893885 -0.08877455 0.18869829 -0.19842346
-0.18721506 -0.16757506 -0.55502445 -0.03649944 -0.17197964 -0.50214505 0.06843679 0.048390634
-0.23306091 0.15114051 -0.1661427 -0.09663576 0.46739462 -0.4761477 -0.20884363 -0.08288703
00000000: 1fc9 ed3d c412 b3ba 395a 653e e0e2 9a3e
00000010: 581c 7ebe 042a a53e cd9b 15bf e534 333e
00000020: dd29 eebe 7ff9 fa3d d205 cd3d 2c9d 11bf
00000030: ef2d 6a3e f83a a53e d84d 59be f925 82bc
00000040: 79e0 92bd 3a7f 28bd 3d31 f73c 65f1 fc3d
00000050: 5cc0 0c3e 1c89 ccbc 189c 6f3e 4920 cf3d
00000060: b4f1 c53d 2377 a53e 0a93 2bbf 2b28 783c
00000070: 84c6 37be 3711 d0bd 0655 35be 04e7 64bf
00000080: a762 58bc 99d4 163e 285d 7d3d ef83 203e
00000090: 4989 b9bd 117a 72be 078d cdbd 4bd2 8cbe
000000a0: a462 7c3e 7521 9d3e 1100 d63d 3950 923e
000000b0: aea4 13bf 161c 183c bd92 bf3d 46e0 4f3d
000000c0: 5bae b43e e354 d23e ea03 883d 0e0d e5bd
000000d0: fa06 85be 9400 a5bd b315 8ebe 6884 c2be
000000e0: 102b 293e d197 23be b712 213e f824 f2bd
000000f0: 3df1 17be e395 f3be 4b81 8cbe 8415 d73e
00000100: b48b 743d 7441 263d c28b 233e ec51 ae3e
00000110: d97b eabe 9f3e f5be e5cf a13e a33e 4ebd
00000120: 799b 9abe 1fae 3cbe 2b8e c83e 7063 3d3e
00000130: ba22 29bd 24a7 dfbe a6d4 023e 756d 123d
00000140: 639a 6abe 7872 13be cdba e6be b11d 263d
00000150: bd3b 473e 6349 ab3e 90f7 ccbe 5ef3 633e
00000160: 7737 e03e d9ea babe afe9 333e cb8c 44be
00000170: 7bdf 373e ed1a 383e eae5 c33d 7a76 11bf
00000180: 1c47 fb3e 2ab9 62bf 5774 f43d 0811 3dbe
00000190: ed4a 81be 0889 09be ded6 883d 2fb7 3ebf
000001a0: fd4b 443e 269f 0a3e f7cf 16be e8ac 2a3c
000001b0: 7f29 c6be 7755 623e bfe4 6bbf bba4 9b3c
000001c0: d1a5 293d 56a7 a4be 5093 a63e a2fb af3d
000001d0: f821 0fbf 595c 36be 3f32 b23d 7cc4 ed3d
000001e0: 3c9e b53e f059 f2be 060b 0fbe d3ba 6f3e
000001f0: a143 07bf ab83 8f3d adb6 95bd 4389 05be
00000200: edca 433e 76b7 44be e910 32bf 2c15 60bf
00000210: f152 b0bc 2bd3 babe 0dcf 2fbf 94f0 b33e
00000220: 608a ddbc 8a31 73bd 8b39 d7be 9f3e 923d
00000230: 2436 20bd a835 a3be 98d7 8bbf 167d 3fbd
00000240: 6e21 f43e eca8 8a3e 109b 29be 2624 443e
00000250: 2d36 e5bd fd59 9d3e 0522 e93c adf6 22be
00000260: c3cd 2fbf 1547 91bd a8a6 ed3e 3c43 ecbe
00000270: bef4 abbd 0109 b43d 2729 f9bc c564 d03d
00000280: df00 61be 7c3d 0ebe 3800 413e 81ea 3a3e
00000290: aef6 4b3e d96d 26bf 0975 c0bd f32e 3a3f
000002a0: 9a3e a13d cb57 15bf f059 5fbd 99c5 abbe
000002b0: fa62 91bd d19b 213e c6a9 0bbe ce24 c63d
000002c0: cb6a 59be 659c 2c3e 3d9e 1abd ecad a6be
000002d0: cbde c1bc c00c c2be 6323 c53a 7f6c d33e
000002e0: 5433 99be 84e1 dcbe dc46 7abe 3e4a 8ebe
000002f0: 256e aebc ef8b a73e ad82 df3d 675e 8d3e
00000300: 919b 93be 18e8 3ebb 5da5 a53d 71b8 d1be
00000310: daae 07bf 0969 04be 1e7b 1cbb 9ee7 b53d
00000320: 3d0c 4dbe 887e 93be 31a6 ebbe ed63 263f
00000330: fe7b 80be b39e a6be c4bc 243e 23d9 8bbe
00000340: 128d 1c3e 6f12 cabc bab6 053d 23de 8c3e
00000350: 9904 12bd 5832 773e b86b dfbe 69da 623d
00000360: 1593 f73e 01a1 fcbe 65be a6bb e6f9 12bf
00000370: e835 b0be 4c1e 81bd b8e5 a33d 013b 513e
00000380: 4d11 66be 1ca0 b53e 7bdf 0ebf 90b5 90bd
00000390: 0436 0bbe e523 e03c cfaa f63e e8a3 babd
000003a0: e727 a4be 5f9a 4d3e df14 acbe b043 38be
000003b0: f44b a33e 6ecf b5bd 203a 413e 852f 4bbe
000003c0: 4eb5 3fbe cc98 2bbe 1516 0ebf 7080 15bd
000003d0: 6e1b 30be 948c 00bf 9628 8c3d 4235 463d
000003e0: 85a7 6ebe 94c4 1a3e 5021 2abe f8e8 c5bd
000003f0: 594e ef3e a2c9 f3be 1bdb 55be adc0 a9bd

bias f4 [32]
0.31230012 0.20088388 0.056180865 0.10173508 0.20775467 -0.017303133 -0.014683695 -0.20311111
-0.39163962 0.19473368 -0.035925332 -0.011778298 0.108020745 0.0734525 0.41653454 0.29195133
-0.056754664 0.17146078 0.3008807 -0.049413737 -0.19579992 -0.17271349 -0.04368499 0.39290598
-0.09870916 0.062061273 -0.15842773 -0.1636238 0.07070751 0.05095489 -0.11570031 0.24322446
00000000: cde5 9f3e 81b4 4d3e e81d 663d 7b5a d03d
00000010: a4bd 543e 4dbf 8dbc e193 70bc 5cfc 4fbe
00000020: fd84 c8be 4468 473e 7126 13bd c3f9 40bc
00000030: fb39 dd3d 446e 963d 0444 d53e a57a 953e
00000040: 9477 68bd 6a93 2f3e 090d 9a3e 0f66 4abd
00000050: c67f 48be cedb 30be 08ef 32bd f92a c93e
00000060: 0728 cabd f633 7e3d e13a 22be ff8c 27be
00000070: 19cf 903d 13b6 503d 49f4 ecbd d50f 793e

weight f4 [4, 32]
0.4568271 0.124080665 0.20980197 0.32904652 -0.48186392 -0.576217 -0.11700315 -0.576832
0.17551118 -0.24793412 0.51250017 -0.10820601 -0.46376538 0.70235646 -0.6557689 -0.3186616
-0.123915635 0.039249405 0.47171012 0.24758491 -0.33229065 0.17942564 -0.035317376 0.18909347
0.0802855 -0.27702272 -0.23951039 -0.20008475 -0.0134628 -0.005868679 -0.21453312 0.109982304
0.27841815 0.22930887 -0.3670407 -0.44005737 0.58784926 0.368394 -0.7927773 -0.006223835
-0.116329096 0.08782285 -0.21741907 -0.53491884 -0.34979138 0.08456164 -0.021636216 0.2310731
0.3213784 0.5215247 0.31821296 0.49797982 0.08943351 0.44056115 -0.13146383 0.47138438
-0.29537436 -0.23592325 0.7011899 -0.032874756 0.79861027 -0.5076566 0.37538552 -0.3245193
0.14446628 -0.1721975 -0.4338942 -0.57166314 0.96999556 0.25421458 -0.49007842 0.31563637
0.3604334 -0.6008542 0.73399496 -0.44768834 -0.21326229 0.48188144 0.1561026 0.32541808
-1.0089288 -0.90100867 -0.19052133 -0.31599158 -1.0991169 -0.42385167 -0.26464102 -0.17016408
0.3712858 0.38343862 0.26415116 0.5653358 -0.07367985 -0.8507468 -0.41008654 0.20345004
-0.4711133 -0.38740787 0.4322998 0.412121 -0.24675569 0.06403358 -0.19128372 0.34017456
0.6658578 -0.16827956 0.20401876 0.2064668 -0.54417276 -0.0141691575 -0.47183147 -0.15384112
0.17963523 -0.18656774 0.05877779 -0.04097705 0.6453638 0.35151112 0.3754788 -0.44088915
0.432178 0.17261267 0.33464172 0.18130508 0.17416573 0.18325306 0.4473093 -0.31005627
00000000: 3ee5 e93e 011e fe3d 54d6 563e c978 a83e
00000010: deb6 f6be f582 13bf 599f efbd 43ab 13bf
00000020: 34b9 333e 71e2 7dbe 3633 033f 1d9b ddbd
00000030: a872 edbe a2cd 333f 78e0 27bf 9d27 a3be
00000040: 7bc7 fdbd fcc3 203d fd83 f13e e686 7d3e
00000050: 0022 aabe 5bbb 373e f4a8 10bd b8a1 413e
00000060: b96c a43d ecd5 8dbe 3642 75be 04e3 4cbe
00000070: 1393 5cbc 0c4e c0bb 92ae 5bbe 673e e13d
00000080: d38c 8e3e f2cf 6a3e c2ec bbbe 334f e1be
00000090: 4a7d 163f 239e bc3e 74f3 4abf 50f1 cbbb
000000a0: f33d eebd 77dc b33d 1ba3 5ebe 71f0 08bf
000000b0: db17 b3be a72e ad3d 6f3e b1bc 6d9e 6c3e
000000c0: b68b a43e a582 053f cfec a23e 36f7 fe3e
000000d0: eb28 b73d 3b91 e13e 749e 06be 4b59 f13e
000000e0: 4f3b 97be dd95 71be 2e81 333f aea7 06bd
000000f0: b971 4c3f c8f5 01bf 8832 c03e 6527 a6be
00000100: f8ee 133e 8b54 30be 6127 debe 8458 12bf
00000110: a151 783f 6a28 823e 8feb fabe 179b a13e
00000120: ba8a b83e 95d1 19bf 18e7 3b3f 6837 e5be
00000130: 6e61 5abe 2ab9 f63e 5cd9 1f3e 339d a63e
00000140: 9424 81bf 81a8 66bf 0618 43be a6c9 a1be
00000150: ddaf 8cbf 1603 d9be 077f 87be 7e3f 2ebe
00000160: 2c19 be3e 1152 c43e d23e 873e d9b9 103f
00000170: 76e5 96bd 8bca 59bf ddf6 d1be 3555 503e
00000180: c335 f1be 535a c6be 6656 dd3e 8601 d33e
00000190: 86ad 7cbe 0a24 833d e1df 43be 5c2b ae3e
000001a0: a875 2a3f 7a51 2cbe 4bea 503e 086c 533e
000001b0: e84e 0bbf c125 68bc e593 f1be 8788 1dbe
000001c0: 4cf2 373e 9d0b 3fbe fbc0 703d 8dd7 27bd
000001d0: 9036 253f 44f9 b33e c23e c03e 39bc e1be
000001e0: 6f46 dd3e 60c1 303e 2956 ab3e 0aa8 393e
000001f0: 8058 323e b1a6 3b3e b905 e53e b2bf 9ebe

bias f4 [4]
-0.16859546 -0.06666663 -0.03879268 -0.087465994
00000000: 4aa4 2cbe 8488 88bd 13e5 1ebd 5f21 b3bd
