agent.value_estimator.model (torch_old, 13484 bytes, 5 tensors)

weight f4 [32, 33]
0	0x3dfe5674	0.124188334
1	0x3e31afd5	0.17352231
2	0xbdeba513	-0.11506095
3	0xbd75078b	-0.059821647
4	0xbe67643b	-0.22596829
5	0x3e1c0f54	0.15240222
6	0x3e3ca774	0.18423253
7	0xbdcc16d4	-0.099652916
8	0xbe9a3e84	-0.3012582
9	0x3e4020ed	0.1876256
10	0xbdafaca3	-0.0857785
11	0xbe7a15f6	-0.2442244
12	0x3d7cfaea	0.061762728
13	0x3d7c7d69	0.061643038
14	0x3e1d489b	0.15359728
15	0x3effd0b1	0.49963906
16	0x3ea80905	0.3281938
17	0x3f687091	0.9079676
18	0x3f155775	0.58336574
19	0x3e2249dd	0.15848489
20	0xbd632ec9	-0.05546454
21	0x3e078317	0.132336
22	0xbd7f83bc	-0.06238149
23	0x3c0639be	0.008192478
24	0x3e5784da	0.21046773
25	0x3e3c4dc4	0.1838904
26	0xbd788a68	-0.06067887
27	0xbe0a80e6	-0.13525733
28	0xbeda709a	-0.42664033
29	0x3d15d040	0.036575556
30	0x3e434e12	0.1907275
31	0x3e2c903c	0.16851896
32	0x3d05e9e7	0.03269377
33	0xbe3a5d81	-0.18199731
34	0xbdcbb11a	-0.09945889
35	0x3dba18dc	0.09086773
36	0xbdf23b1d	-0.11827681
37	0xbe9a4325	-0.30129352
38	0x3e53757f	0.2065029
39	0x3e450fb6	0.19244274
40	0xbd0af8d2	-0.0339287
41	0x3e8247d2	0.2544542
42	0x3c21b6d8	0.0098702535
43	0x3d0e3afa	0.034724213
44	0x3ba8a4ae	0.0051465845
45	0x3c57c5e5	0.01316974
46	0xbcb4e811	-0.022083314
47	0xbe84fecb	-0.25975642
48	0xbeb36e67	-0.35045168
49	0xbef97e01	-0.48728946
50	0x3e0c41c2	0.1369696
51	0xbaaf61b5	-0.0013380559
52	0xbe1c897e	-0.15286824
53	0xbc6c081d	-0.014406231
54	0xbe2c642f	-0.16835092
55	0x3d819c7f	0.063286774
56	0xbd5cdf97	-0.05392417
57	0x3d08903f	0.03334069
58	0xbd27fa77	-0.041010346
59	0x3ee42b68	0.44564366
60	0xbe479368	-0.19489825
61	0x3dda8cc5	0.10671381
62	0x3d82b13a	0.063814595
63	0x3de1963f	0.11014985
64	0xbdceeceb	-0.10103782
65	0x3f1af83f	0.60535043
66	0xbdafe8f3	-0.085893534
67	0x3e6ddf99	0.23229827
68	0x3e03d05a	0.12872449
69	0xbe70a31f	-0.23499726
70	0xbe443b54	-0.19163257
71	0x3ec36884	0.38165677
72	0x3d4869c6	0.048929
73	0x3e1a7669	0.15084232
74	0x3d607abf	0.05480456
75	0xbdb7796b	-0.089587055
76	0x3d72e928	0.059304386
77	0xbde9486c	-0.113907665
78	0xbd1f6e21	-0.038923386
79	0x3dbbbd1c	0.09166929
80	0xbd26bf02	-0.040709503
81	0xbd4320f8	-0.047638863
82	0xbe382423	-0.17982535
83	0x3efb418a	0.4907344
84	0x3e2745f3	0.16335277
85	0xbf6043ab	-0.87603253
86	0xbe232b79	-0.15934552
87	0x3d9e02fe	0.077154145
88	0x3da14211	0.07873929
89	0x3d0412d4	0.03224452
90	0xbe0b5f50	-0.13610578
91	0x3d3e55c2	0.046468504
92	0xbf373be7	-0.7157578
93	0xbdbb3f36	-0.09142916
94	0xbd8b3caf	-0.06798684
95	0xbd101460	-0.03517568
96	0xbdcf52f8	-0.10123247
97	0x3e1237fa	0.14279166
98	0x3f79e049	0.97607857
99	0x3eb2fc06	0.34957904
100	0x3e6f2ad5	0.23356183
101	0xbe0f6de3	-0.14006762
102	0xbdfc52b9	-0.123204656
103	0x3ed835cd	0.42228547
104	0x3e1e0788	0.1543256
105	0xbe41e104	-0.18933493
106	0xbe0e0bea	-0.13871732
107	0xbdc8b63c	-0.098003834
108	0xbd32309b	-0.043503385
109	0xbd2d3729	-0.042288933
110	0xbdbf278f	-0.09333717
111	0x3e0c6af3	0.13712673
112	0xbecdb810	-0.4017949
113	0x3eaee30a	0.34157592
114	0xbe8cb5ca	-0.27482444
115	0x3e3c6a72	0.1839998
116	0xbeec68b0	-0.4617362
117	0x3eabb991	0.33540013
118	0x3df382ed	0.118902065
119	0x3d2d8329	0.042361412
120	0x3cba35d6	0.02273075
121	0xbe4710e9	-0.19440044
122	0x3dbb1fc4	0.09136918
123	0x3db089c3	0.08620026
124	0x3cfaec32	0.030630205
125	0x3e313676	0.17305931
126	0x3db686f6	0.089124605
127	0xbe2f54d7	-0.17122208
128	0x3e07db5e	0.13267276
129	0xbec0294d	-0.3753151
130	0x3d19ac7c	0.03751801
131	0xbe21a674	-0.15786153
132	0xbeb0deaf	-0.34544894
133	0x3d75c1f7	0.059999432
134	0x3f212503	0.629471
135	0xbcc50d8c	-0.024054311
136	0xbf21bf7b	-0.631828
137	0xbda3d61c	-0.079998225
138	0x3f168655	0.58798724
139	0x3d609bdf	0.05483615
140	0x3d0805f0	0.033208787
141	0xbe3cf9a0	-0.184546
142	0x3d8de832	0.06929053
143	0xbd6db8d1	-0.058037583
144	0xbcf6013a	-0.030029882
145	0xbdd87d96	-0.105708286
146	0xbe928f3e	-0.2862491
147	0xbece70d0	-0.40320444
148	0x3f88d980	1.0691376
149	0x3e9b3bb7	0.30318996
150	0xbf353599	-0.7078491
151	0xbfd0cead	-1.6313072
152	0x3d6d7b48	0.0579789
153	0x3daaeefe	0.083463654
154	0xbcfc198f	-0.030773906
155	0xbd166a2e	-0.036722355
156	0x3c4209c5	0.01184315
157	0xbdd3f11d	-0.10348723
158	0xbd168664	-0.03674926
159	0x3de33e3f	0.11095857
160	0x3e7ab80f	0.24484275
161	0x3d791588	0.06081155
162	0xbe06792f	-0.13132165
163	0xbd64ba0c	-0.05584149
164	0xbf07cf68	-0.5305085
165	0xbd7118a4	-0.05886139
166	0xbe3e9744	-0.18612391
167	0x3e8378bc	0.2567805
168	0x3ec08c68	0.3760712
169	0x3c8500b7	0.016235692
170	0x3eecb884	0.46234524
171	0xbe874741	-0.2642155
172	0x3e456e61	0.19280387
173	0x3e9d218c	0.30689657
174	0xbe1f3186	-0.15546235
175	0x3dbcd21e	0.09219764
176	0xbc23848b	-0.009980331
177	0x3d5314dc	0.051533565
178	0x3e9aa38d	0.30202904
179	0xbdf6eae4	-0.120565206
180	0xbe55d466	-0.20881805
181	0xbdac5c06	-0.084159896
182	0x3f31b46d	0.6941593
183	0xbee9aa10	-0.4563756
184	0xbd795dfd	-0.06088065
185	0xbd1de66b	-0.03854982
186	0xbce74254	-0.02822987
187	0x3c8da2f2	0.017289612
188	0x3d0d972e	0.034568004
189	0xbd23f171	-0.04002518
190	0x3e74f121	0.23920108
191	0xbe109d06	-0.141224
192	0xbf154033	-0.58301085
193	0xbdac33a8	-0.0840829
194	0xbe15409e	-0.14575431
195	0x3ee4fe59	0.44725302
196	0x3d873ba4	0.066031724
197	0x3fabbd60	1.3417168
198	0xbe8d2827	-0.27569696
199	0xbd80d432	-0.06290473
200	0x3ebd3933	0.36957702
201	0x3e0381cc	0.12842482
202	0xbf1d1d1a	-0.6137253
203	0xbfaedd54	-1.3661294
204	0x3e9e0709	0.30864742
205	0xbd9e7c60	-0.077385664
206	0xbed3d71d	-0.41375056
207	0xbdd9a9d9	-0.10628099
208	0x3cdda3b5	0.0270556
209	0x3af44d4c	0.0018638759
210	0xbc9f9e02	-0.019484524
211	0x3eb76cae	0.35825104
212	0x3e58cc42	0.21171668
213	0xbe8d6076	-0.27612656
214	0x3f8fcd23	1.1234478
215	0xbe921d2b	-0.28537878
216	0x3ebdec64	0.37094414
217	0x3f56fffa	0.8398434
218	0x3daf86d0	0.08570635
219	0x3d059484	0.03261234
220	0x3c7810bb	0.015140708
221	0x3d4d1a51	0.050073925
222	0x3c588d56	0.013217291
223	0x3c838e7c	0.016059153
224	0xbd40055c	-0.04688011
225	0x3e7c3d56	0.24632773
226	0xbe8a38f7	-0.26996586
227	0xbb8098c0	-0.003924459
228	0xbe68aae0	-0.22721434
229	0xba8c5180	-0.0010705441
230	0x3fd4aa75	1.6614519
231	0x3f0c5eaa	0.54831946
232	0xbe374319	-0.1789669
233	0x3e8b5a7a	0.27217466
234	0xbec53e42	-0.3852406
235	0x3eab1a7a	0.33418638
236	0x3ee0814e	0.43848652
237	0x3e381cbe	0.17979714
238	0x3d8a6b03	0.06758692
239	0x3dd5aad9	0.10432977
240	0x3d2b333f	0.04179692
241	0xbc055821	-0.008138687
242	0x3d6cc639	0.057806227
243	0x3b8933fc	0.004187105
244	0xbe20aeaa	-0.15691629
245	0x3e16ae94	0.14715034
246	0xbee08384	-0.43850338
247	0xbf06b9cd	-0.5262726
248	0x3d80d5db	0.0629079
249	0x3f5a3bee	0.85247695
250	0x3f6760ca	0.90382063
251	0xbde2c932	-0.11073531
252	0xbd62d1ca	-0.05537585
253	0x3dc10c11	0.094261296
254	0x3daaf8f1	0.08348263
255	0x3d829722	0.063764825

bias f4 [32]
0	0x3e774146	0.24145994
1	0x3d86f147	0.06588989
2	0x3db83cda	0.089959815
3	0xbe373f52	-0.17895249
4	0xbdcd053b	-0.10010763
5	0x3ed7ec01	0.42172244
6	0xbe655a44	-0.22397715
7	0xb98d558b	-0.0002695735
8	0xbdd21fa5	-0.10259942
9	0x3f22a444	0.635319
10	0x3e3786b2	0.17922476
11	0x3e2d79da	0.16941014
12	0xbe4853a9	-0.19563164
13	0xbd547407	-0.051868465
14	0x3f00cdf4	0.5031426
15	0x3eeb3a39	0.45942858
16	0xbe360a5a	-0.17777386
17	0x3eabc349	0.33547428
18	0xbd837799	-0.06419296
19	0xbdad44f4	-0.084604174
20	0x3d8ff713	0.070295475
21	0x3e9cc242	0.30616957
22	0x3e861602	0.26188666
23	0x3eb34f5d	0.35021487
24	0x3eadb426	0.33926505
25	0x3ebd6bb7	0.36996242
26	0x3e85db01	0.2614365
27	0x3ebd4f56	0.3697459
28	0x3d9ebd1a	0.07750912
29	0x3e4711a5	0.19440325
30	0x3cdd7f29	0.027038174
31	0xbc43958c	-0.01193751

weight f4 [32, 32]
0	0xbf0e6d37	-0.556354
1	0x3e86f46b	0.2635835
2	0x3e534f1a	0.20635644
3	0x3dda65ce	0.10663949
4	0x3e91a580	0.2844658
5	0xbe852c4b	-0.26010355
6	0xbe07ef7b	-0.13274948
7	0xbd44536d	-0.047931124
8	0xbea7a258	-0.32741046
9	0x3e15224f	0.14563869
10	0x3e8f7508	0.28018975
11	0xbdcfb0f1	-0.10141171
12	0xbec6bced	-0.38816014
13	0xbe28be53	-0.16478853
14	0xbf83a5e0	-1.0284996
15	0x3de7911a	0.11306973
16	0xbd9a5d08	-0.075372756
17	0xbdcf28a7	-0.10115176
18	0xbee340a1	-0.44385245
19	0xbf3931e0	-0.7234173
20	0xbdfdb35e	-0.12387727
21	0xbbe7fe55	-0.0070798793
22	0xbbc78f34	-0.006090069
23	0xbea3e5b1	-0.32011178
24	0x3ee4fd36	0.44724435
25	0xc0180e29	-2.3758643
26	0x3ed3762c	0.41301095
27	0xbf690275	-0.91019374
28	0xbe5d2823	-0.21597342
29	0x3ce936d0	0.02846852
30	0xbe1a7b3b	-0.15086071
31	0xbe0f3bd7	-0.13987671
32	0x3d21f1e4	0.039537326
33	0xbf20f5af	-0.62874883
34	0xbea486c1	-0.3213406
35	0xbe2091e1	-0.15680648
36	0xbf0aab55	-0.5416768
37	0xbc8286b0	-0.015933365
38	0x3e4db251	0.20087554
39	0x3c838d17	0.016058488
40	0xbc62e9c3	-0.013849678
41	0xbe5d8d17	-0.21635853
42	0xbecc2686	-0.3987314
43	0x3e0a3c82	0.13499644
44	0xbe81f84a	-0.25384742
45	0xbd47e746	-0.048804544
46	0xbe810be5	-0.25204387
47	0x3d9e02ec	0.07715401
48	0xbf4881f8	-0.78323317
49	0x3d3858db	0.045006614
50	0x3defd1c4	0.117099315
51	0xbe2febe1	-0.17179824
52	0x3bd96c05	0.0066351914
53	0xbd38c13b	-0.045106154
54	0xbe47e481	-0.19520761
55	0xbebfad73	-0.3743702
56	0xbf070081	-0.52735144
57	0x3e62047b	0.22072022
58	0xbeaa4cb5	-0.33261648
59	0x3e31e7ef	0.17373632
60	0x3e1aaeb3	0.15105705
61	0xbe4be372	-0.19910982
62	0xbc7251cc	-0.01479001
63	0x3e1a53df	0.15071057
64	0x3e96a1e4	0.29420388
65	0x3d3385e5	0.043828864
66	0x3e306967	0.17227708
67	0x3e38735c	0.18012756
68	0xbf22d080	-0.63599396
69	0xbe89cef4	-0.26915705
70	0x3d143286	0.036180995
71	0x3f24579f	0.641962
72	0x3f018725	0.5059684
73	0xbcc18746	-0.023624074
74	0xbc68cad9	-0.014208519
75	0x3eb91cf3	0.361549
76	0x3e58b5ee	0.2116315
77	0x3dffc08b	0.124878965
78	0xbe1d521b	-0.15363352
79	0x3e6716f4	0.2256735
80	0xbf3e660f	-0.7437448
81	0xbd9a5fe8	-0.07537824
82	0x3e66a33c	0.22523206
83	0xbe5b82bd	-0.21436591
84	0xbb1478bb	-0.0022654969
85	0xbef756e0	-0.48308468
86	0xbeafc262	-0.3432799
87	0xbcbdba8e	-0.023160245
88	0xbe490ac7	-0.19633017
89	0xbfa13a7f	-1.2595977
90	0x3e124420	0.142838
91	0xbd62881f	-0.055305596
92	0xbd947dcd	-0.07250557
93	0x3b4496c6	0.0029997095
94	0xbdbacd51	-0.09121192
95	0x3ea15c65	0.31515804
96	0x3d023fcd	0.031799126
97	0x3defbcbd	0.11705921
98	0x3c0bf575	0.008542408
99	0xbe848b29	-0.2588742
100	0xbf2f7377	-0.6853556
101	0xbe9a72ba	-0.30165654
102	0xbf632f81	-0.8874436
103	0xbf2e3649	-0.6805158
104	0x3e8248ba	0.2544611
105	0xbee141bb	-0.4399546
106	0xbe48ee66	-0.19622192
107	0x3e635186	0.22199067
108	0xbecee03a	-0.40405446
109	0x3d2a58e7	0.04158869
110	0x3e60a725	0.2193876
111	0xbe83b04b	-0.25720438
112	0xbe175aac	-0.14780682
113	0xbe8bd0fc	-0.2730788
114	0x3ea13366	0.31484526
115	0x3cc568d7	0.024097843
116	0xbea856d4	-0.32878745
117	0xbe54d98b	-0.20786111
118	0x3e717504	0.23579794
119	0x3dac73ae	0.08420502
120	0x3d86f5b5	0.06589834
121	0x3e8e6113	0.27808437
122	0xbe6026d8	-0.21889818
123	0x3d32169a	0.043478586
124	0x3cb5c70b	0.022189638
125	0xbee9c4fb	-0.45658097
126	0xbd93a303	-0.072088264
127	0xbed117ea	-0.40838557
128	0xbdb09e36	-0.08623926
129	0xbe9f24a2	-0.31082636
130	0xbed4aecd	-0.41539612
131	0x3e301558	0.17195642
132	0x3e5fbc1c	0.21849102
133	0x3ca9dddb	0.020735672
134	0xbd4f6f0d	-0.050643016
135	0x3ef324c4	0.47488987
136	0xbf6665cf	-0.899991
137	0x3d590f49	0.052993093
138	0xbe5df149	-0.21674074
139	0x3f3ec02c	0.7451198
140	0x3f1b4c20	0.6066303
141	0x3ebcdbb8	0.36886382
142	0x3db72cfe	0.089441285
143	0xbd763497	-0.060108747
144	0x3c977c09	0.018491762
145	0x3eafb3d1	0.34316877
146	0x3e514918	0.2043804
147	0x3f1af349	0.60527474
148	0xbce10221	-0.027466835
149	0xbe0d88cb	-0.13821714
150	0x3ed51c56	0.4162318
151	0xbd9b180c	-0.07572946
152	0xbf2031a0	-0.6257572
153	0x3e3025f4	0.17201978
154	0xbd53572e	-0.051596813
155	0x3f57b201	0.8425599
156	0x3f8f6205	1.1201788
157	0xbf282887	-0.6568684
158	0x3e042236	0.12903675
159	0xbe8a85d9	-0.27055243
160	0xbef6e8df	-0.48224542
161	0xbee149eb	-0.44001707
162	0x3e303444	0.17207438
163	0xbe916802	-0.28399664
164	0xbec297dd	-0.38006487
165	0x3cc00a07	0.023442281
166	0xbd5d6b03	-0.054057132
167	0x3ec6743b	0.38760552
168	0xbeb59da0	-0.3547182
169	0x3bdf08cf	0.00680647
170	0x3e8726d2	0.26396805
171	0xbd9b0200	-0.07568741
172	0x3de97b76	0.114005014
173	0xbe88682f	-0.26641986
174	0xbe1a9414	-0.1509555
175	0x3d10b8b3	0.035332393
176	0xbe9a0d0c	-0.3008808
177	0xbf05c27d	-0.5224989
178	0x3deb5ce7	0.11492329
179	0xbf009ed7	-0.5024237
180	0x3e8054e8	0.25064778
181	0xbe4f47f3	-0.2024229
182	0xbd363797	-0.04448661
183	0xbd25ee9f	-0.04051077
184	0x3d8d7b0e	0.069082364
185	0xc0091ab6	-2.1422553
186	0x3dc5c66b	0.09656986
187	0xbedde89e	-0.43341535
188	0xbf306815	-0.68908817
189	0xbecfaba0	-0.40560627
190	0xbed8e45e	-0.4236173
191	0x3dc72e89	0.09725673
192	0x3ef49195	0.4776732
193	0x3de14165	0.10998801
194	0x3cf2af52	0.029624615
195	0x3dca528c	0.09879026
196	0xbda5f3aa	-0.08103116
197	0xbcd9ee0a	-0.026602764
198	0x3e5c861a	0.2153553
199	0xbdaa6f14	-0.08321968
200	0x3f2194cd	0.63117677
201	0xbd6db6e3	-0.058035742
202	0xbe8f9282	-0.28041464
203	0xbd7d81ae	-0.06189125
204	0x3e4986f4	0.19680387
205	0xbe04739f	-0.12934731
206	0x3e2078b0	0.15671039
207	0x3d8f3ecb	0.06994399
208	0x3f2a556d	0.665366
209	0xbda35fe3	-0.07977273
210	0x3d06ae95	0.03288134
211	0x3cfc7abc	0.030820243
212	0xbe60078c	-0.21877879
213	0x3e8bd186	0.2730829
214	0xbee96359	-0.4558361
215	0x3f0caef8	0.5495448
216	0x3dc76f82	0.09738065
217	0xbea1171f	-0.31462952
218	0x3e72b7cd	0.23702927
219	0xbe68ede6	-0.22747001
220	0xbeab70f1	-0.33484605
221	0x3e4d9191	0.2007506
222	0xbe48fded	-0.19628115
223	0x3e98c8d6	0.29840726
224	0xbe21eb27	-0.1581236
225	0xbec75d55	-0.38938394
226	0x3e484d05	0.1956063
227	0x3e72b6c3	0.2370253
228	0xbe592fa6	-0.21209583
229	0x3a8ec314	0.0010891878
230	0x3f037738	0.5135379
231	0xbc3ecdfe	-0.011645792
232	0x3ea98458	0.33108783
233	0x3e00648a	0.12538353
234	0x3e15b80f	0.14620994
235	0x3dc10685	0.094250716
236	0xbdea58ac	-0.11442694
237	0x3e848b62	0.2588759
238	0x3ce18ced	0.027533019
239	0x3e6a30ff	0.22870253
240	0x3ea7053f	0.3262119
241	0x3ed9fa48	0.42573762
242	0xbdd7a642	-0.10529758
243	0x3ea870a4	0.32898438
244	0xbf0d4483	-0.55182666
245	0xbe29bae4	-0.165752
246	0x3f0d8790	0.55284977
247	0xbd4b4c30	-0.049633205
248	0x3db4cdc9	0.08828313
249	0x3f1a71c6	0.60329854
250	0x3ceff3de	0.02929109
251	0x3e9264eb	0.2859262
252	0x3e0d904e	0.13824579
253	0x3d183c6e	0.037167005
254	0xbd4f3414	-0.050586775
255	0x3f34054a	0.7032057

bias f4 [32]
0	0xbe54616d	-0.2074029
1	0x3d4e3078	0.050339192
2	0xbe980ec3	-0.29698762
3	0xbe86538c	-0.26235616
4	0x3e9d25f9	0.30693033
5	0xbdb3c298	-0.0877735
6	0x3e783e73	0.24242572
7	0xbe2ddb3b	-0.16978161
8	0xbe21309c	-0.157412
9	0xbef530b8	-0.47888732
10	0xbeba30bf	-0.36365315
11	0xbe1b4dea	-0.1516644
12	0xbe8d5414	-0.2760321
13	0xbe080062	-0.13281396
14	0x3e237863	0.15963893
15	0xbeb2718b	-0.3485225
16	0x3da4b3b5	0.08042089
17	0x3f1690e2	0.58814824
18	0xbdafd609	-0.08585746
19	0x3dea1094	0.11428943
20	0xbebfbddf	-0.37449548
21	0x3ec97636	0.39348
22	0x3dbdc0a1	0.09265257
23	0xbe9192e8	-0.28432393
24	0x3e61e15e	0.22058627
25	0xbded6fde	-0.115936026
26	0xbee51549	-0.44742802
27	0x3e9673e8	0.29385304
28	0x3ea0fce2	0.31442934
29	0x3d709bf6	0.058742486
30	0x3cae2a5c	0.021260433
31	0xbe711c27	-0.23545896

weight f4 [1, 32]
0	0xbfba8fdd	-1.4575154
1	0xbf93582c	-1.1511283
2	0xbf87f501	-1.0621644
3	0xbfbc4bb2	-1.47106
4	0x4056a64b	3.3538997
5	0xbf8f7718	-1.120822
6	0x3f08f015	0.53491336
7	0xbef0781e	-0.46966642
8	0xbf8542a5	-1.0410963
9	0xbfe6c12b	-1.80277
10	0xbfa2b3c2	-1.2711108
11	0xbf45d21e	-0.7727374
12	0xbf8b1c3c	-1.0867991
13	0xbf82a675	-1.0207049
14	0xbf8e4baa	-1.1116841
15	0xbf240178	-0.6406474
16	0x3f94788c	1.1599288
17	0x4003d53b	2.0598896
18	0xbf14d783	-0.58141345
19	0x407465b4	3.8187075
20	0xbf38ae60	-0.72141075
21	0x402e7378	2.7257977
22	0x3fdf22e2	1.743252
23	0xbfa9b10b	-1.3257154
24	0x3fb70450	1.4298191
25	0xbf1cc547	-0.6123852
26	0xbfda358a	-1.7047589
27	0xbf33f6fa	-0.7029873
28	0x3fdebd55	1.740153
29	0x3efa76da	0.48918802
30	0xbeea88ab	-0.45807394
31	0xbf542f94	-0.828851
