agent.policy.model (torch_old, 14314 bytes, 7 tensors)

log_sigma f4 [4]
000000 89 fc 4f 3b 04 d5 80 bb db e2 9c b8 d9 6b 83 ba
       0.0031736216 -0.0039316434 -7.480915e-05 -0.0010026648

weight f4 [32, 33]
000000 85 9d a7 bd ed db 76 bc 8f a2 8a bd 02 91 b0 bd
       -0.08184341 -0.015067083 -0.06769287 -0.08621408
000010 6d bf 14 3c 5d d9 7f 3d dd e0 a2 bd 35 e2 23 be
       0.009078843 0.062463153 -0.079530455 -0.1600426
000020 89 99 d1 bd 73 63 a0 bd ff c1 ca 3c 7c 53 c6 3d
       -0.10234363 -0.078314684 0.024750708 0.09683892
000030 d4 35 8e bd f0 96 00 3e 84 e8 ad bd 17 51 b3 bd
       -0.06943861 0.12557578 -0.084916145 -0.08755701
000040 59 45 b1 bc 6b 92 8a bd 62 e3 3e 3b c0 3b 6a be
       -0.021639513 -0.06766208 0.002912723 -0.22874355
000050 f6 6f 75 bd 9a 18 18 3c 2e fa 14 be b0 40 bb 3c
       -0.059921227 0.009283209 -0.14548561 0.022857994
000060 5a 4a 55 bd 59 7b e2 bd fe 85 4a bd 68 83 2d be
       -0.05207286 -0.11058683 -0.04944419 -0.16944659
000070 0a ea 0a 3e 48 89 8e bc 8c 8d 07 bd 40 e6 ef bb
       0.13565841 -0.017399445 -0.033093974 -0.007321149
000080 b7 e9 95 bd 42 51 2a 3e 11 b2 8c bd 3d a8 09 be
       -0.07319968 0.1663256 -0.06869901 -0.13443084
000090 ca a6 bc 3c 1f af 0c 3e de 0d 89 3d e2 1e a0 bc
       0.02302875 0.13738678 0.06692098 -0.019545976
0000a0 cd 0c 52 bd c7 a2 20 3d 5f d4 9d 3d 7b 77 35 3e
       -0.05128174 0.039217737 0.07706522 0.1772136
0000b0 40 7e ec 3c 04 80 1d 3e d3 72 bc 3c c5 0e eb 3d
       0.028868794 0.15380865 0.023003971 0.114774264
0000c0 0f 3e 08 3e 56 dc f6 3d cc 5a d0 3d da 6b b7 3d
       0.13304923 0.120537445 0.10173568 0.08956118
0000d0 2f a2 d4 3d 95 cb 63 bb 47 89 c5 bc a9 f4 13 bd
       0.103824966 -0.0034758796 -0.02411331 -0.036121998
0000e0 4b ca e9 3d e2 fa 05 3d 3d a4 3e be 37 40 f1 3c
       0.114155374 0.032709964 -0.1861734 0.029449565
0000f0 59 e6 bf 3c 3b f5 26 be 88 db df bd fe d4 b9 bd
       0.023425268 -0.16304485 -0.10930544 -0.09073828
000100 ab d8 fc bd a0 1c f4 bd dd f0 ba bd d2 17 aa 3d
       -0.12346014 -0.11919522 -0.09127972 0.083053246
000110 a5 ae ec bd 0b 8f e2 bd f2 59 54 be f8 de 16 3e
       -0.11556748 -0.110624395 -0.20737436 0.14733493
000120 65 ba e3 3d bb 89 3a 3d 80 ac 3a 3c 9a 67 8a bd
       0.11119536 0.045541506 0.011393666 -0.06758042
000130 98 3c e9 bd 08 62 14 3c b4 05 10 3e 21 bf fe 3d
       -0.113885105 0.009056576 0.14064676 0.12438799
000140 7f b6 d9 3d 30 30 ff 3d fb 7e 0c bd c7 a7 d0 bd
       0.106305115 0.12460363 -0.034300786 -0.10188251
000150 d2 9d 9e 3d f3 a5 ad 3c d1 85 7b 3d 43 0f 3f 3d
       0.077449456 0.021197295 0.061406914 0.046645414
000160 d3 7f 1f be f9 f1 00 be 9c 8d be 3d db a0 16 3e
       -0.15576105 -0.12592305 0.093043536 0.14709799
000170 de 6c bf 3d 5a d0 2f bb a6 bc 1b be c0 bc 91 bc
       0.09346937 -0.0026827068 -0.15208682 -0.017790198
000180 ba 18 f6 bd 92 ae 98 3d a0 d6 3a 3d a8 cd 21 3e
       -0.12016435 0.07455172 0.04561484 0.15801108
000190 9d f8 0d be b0 69 df bb 8b b9 b4 3d 58 d0 83 b8
       -0.1386437 -0.006818019 0.08824452 -6.285374e-05
0001a0 57 22 1e be 6b 87 b0 3d 46 9f db bd bc 95 25 3d
       -0.15442787 0.08619579 -0.10723738 0.040426
0001b0 6e 30 83 3d 02 50 80 3d cd 0f 4a bd 45 0f 08 be
       0.064057216 0.0626526 -0.049331475 -0.13287075
0001c0 bc b0 f5 3d 82 ab b1 bc 55 2a 1d be 31 1c dd 3c
       0.119966 -0.021688227 -0.1534818 0.026990982
0001d0 6d db 9d bd c2 ce 81 ba a1 aa bb 3d 18 d6 af 36
       -0.07707868 -0.0009903538 0.09163404 5.24033e-06
0001e0 32 b4 0c 3e 60 bd 49 3c 1f eb e9 3d 09 b7 34 3b
       0.13740614 0.012313217 0.11421799 0.0027574918
0001f0 17 7e 29 be ae 37 21 be 96 c8 bc bc c5 b3 0a 3e
       -0.16552006 -0.15743896 -0.023044866 0.13545139
000200 ae c7 90 3d ca 18 e8 bd 76 42 99 3d a6 61 a5 3c
       0.07069336 -0.11332853 0.074833795 0.020188164
000210 a9 52 09 3e 6c 7b 8b bc d5 2d f0 3d 6e a8 75 3d
       0.13410439 -0.017026626 0.11727492 0.05997508
000220 8b 52 f5 3c 3c 11 fc 3d 01 39 50 3e e0 b5 2a 3e
       0.029946586 0.12307975 0.20334245 0.16670942
000230 b8 38 7a bd 77 ea 10 be e3 37 af 3d e1 ad 27 bd
       -0.061089247 -0.14151941 0.085555814 -0.04093731
000240 ad cb 12 3e be d6 a2 bd c8 06 02 be 84 02 38 3a
       0.14335509 -0.07951115 -0.126979 0.0007019418
000250 2b 61 8e bd f3 7b 70 3d 70 8f 20 3e e6 d3 0e 3d
       -0.06952127 0.058711957 0.15679717 0.03487005
000260 89 e9 33 3e f0 4e 92 bd e4 55 27 bd b3 18 eb bd
       0.17569555 -0.071439624 -0.040853396 -0.114793204
000270 8e d3 e1 bd d3 d3 ab 3d d2 4d a1 bc 13 42 34 3e
       -0.11026679 0.08390012 -0.019690428 0.1760333
000280 ae b3 e5 3d 46 2a 4d bd 0a ab a6 bd 00 91 91 ba
       0.11215912 -0.050089143 -0.08138092 -0.0011105835
000290 b6 78 58 3d c6 03 04 3e a2 32 22 3e 33 1a e2 3c
       0.052849494 0.12892064 0.15839627 0.027600383
0002a0 66 59 cb bd 24 f1 29 3e d3 ae 29 bd 05 bb 84 bd
       -0.09929161 0.16595894 -0.04142649 -0.06480984
0002b0 24 72 05 be 9f 1d 04 3e cc 7b ca bd f3 3c e8 bb
       -0.13031822 0.12901925 -0.09886894 -0.007087344
0002c0 75 47 9b bd 28 68 b0 3d e0 6d 3f 3d 59 53 90 3d
       -0.07581989 0.08613616 0.046735644 0.07047147
0002d0 74 c8 f4 bc 8d f9 7d 3c f2 e1 a7 bd 59 12 9f 3d
       -0.02988074 0.015501392 -0.081973925 0.077671714
0002e0 8a 59 e4 bd 03 08 19 3e ef 77 12 bd 95 09 35 be
       -0.11149891 0.14944462 -0.03575891 -0.17679437
0002f0 76 d9 25 3e 52 0d 4c 3c da b7 4c 3d b4 9b 1c be
       0.16196236 0.012454348 0.049980022 -0.15293771
000300 02 7f 8c 3d 00 14 b1 3c de f7 04 3e 62 53 b4 bd
       0.06860162 0.021615982 0.12985179 -0.088049665
000310 d5 6b 2d be 9b 91 3b bc 40 06 b9 bc 75 51 da 3d
       -0.16935666 -0.011448289 -0.022585988 0.10660068
000320 03 f2 05 3d d1 58 21 be 19 09 98 bd 10 f4 0d 3d
       0.032701503 -0.15756537 -0.0742361 0.034656584
000330 ca 9a f4 bd 4b 01 d8 bd c7 a2 f5 39 e0 8c 20 3e
       -0.11943586 -0.105471216 0.0004685132 0.1567874
000340 a2 d3 0f 3e c0 ef b3 3d b6 97 aa ba b5 d5 db 3d
       0.14045575 0.08785963 -0.0013015184 0.10734121
000350 3f d5 17 be 3b d0 35 3e 47 6f 11 bd e3 84 6a 3e
       -0.1482744 0.17755215 -0.035506513 0.22902255
000360 a5 4f 9d 3c 4b 75 c2 bd 68 05 23 be eb 5f 4a 3e
       0.019203017 -0.09495028 -0.15920031 0.19763152
000370 99 fb 3c 3b ac 00 59 3d 40 76 85 bb ad 61 cb 3c
       0.0028836487 0.052979156 -0.0040729344 0.024826849
000380 18 57 03 3e 02 17 15 be cc bd 69 bd ef ec 1a be
       0.12826192 -0.14559558 -0.05706577 -0.15129445
000390 7c 66 04 be c0 d9 d5 3d 6f 61 44 ba fe 88 a3 3d
       -0.1292972 0.10441923 -0.00074913254 0.079851136
0003a0 fd 82 d6 3d c8 70 ae 3d 14 60 e3 bc 44 00 35 3c
       0.10474203 0.08517605 -0.027755775 0.011047427
0003b0 1b 6e 59 bd 9f 4a 0a bd 5b 0d ae 3d a5 2b b1 bd
       -0.05308352 -0.03376257 0.08498641 -0.08650903
0003c0 1a 4b cb bd 3c 03 f5 bd 28 ba d7 3d 49 33 00 be
       -0.09926434 -0.119635075 0.10533553 -0.12519564
0003d0 7f 13 1e be fc 3b 63 bd e6 ee 10 be 26 ac aa 3d
       -0.15437125 -0.055477127 -0.14153633 0.08333616
0003e0 2d 77 26 3e 28 fd a7 bc ad fa b0 bd 20 c8 b2 3d
       0.162564 -0.020506456 -0.086415626 0.08729577
0003f0 c8 97 0a 3d d0 3f 69 3c 1f 17 b2 3d 94 7b 37 bd
       0.033836156 0.0142364055 0.08695816 -0.044795588

bias f4 [32]
000000 8a bc e7 bd d6 a2 bc bb 02 1d e3 3c 22 e2 de bd
       -0.11315258 -0.0057567162 0.027723793 -0.10882975
000010 4a 2b 03 bd 25 00 64 bd c3 5a 56 bd 39 ff 3a 3d
       -0.032023706 -0.0556642 -0.05233265 0.045653556
000020 42 17 d6 bd ba bb e3 bd 20 07 e9 3d 89 0d 1d 3d
       -0.10453655 -0.111197904 0.11378312 0.038342986
000030 c7 67 02 bd d5 c7 81 bd 25 06 f4 bd 23 70 2f 3e
       -0.03183725 -0.06336943 -0.119152345 0.1713262
000040 cc 82 28 be ad 31 10 3c 6e 8e ae 3c de cc f4 3c
       -0.16456145 0.008800906 0.02130815 0.029882845
000050 49 4d 30 be d5 19 ab bd e6 5b d3 3d 9f 3c 0f be
       -0.17216982 -0.083545364 0.103202626 -0.13987969
000060 08 91 94 bd 38 2d 13 be 80 e0 42 3c b8 80 84 bd
       -0.07254225 -0.14372718 0.011894345 -0.06469864
000070 80 9c 0d be 6e 48 97 bd 14 2f ed 3d bc 1f 31 3c
       -0.13829231 -0.07386862 0.11581245 0.010810789

weight f4 [32, 32]
000000 09 d6 d4 bd 5d a6 0c be 62 03 5c bd 01 29 6c bd
       -0.103923865 -0.13735338 -0.053714164 -0.057656292
000010 bc f6 1f 3d f6 8a 2c 3e 19 58 30 be db ce 40 3d
       0.039053664 0.16849884 -0.17221107 0.047072273
000020 96 04 b4 3d a7 be 61 3d 0a 9f 2b be 6c a5 10 bd
       0.08789937 0.05511346 -0.16759887 -0.03531401
000030 8c 23 12 3e 43 42 6b bd 5c 12 48 bd 57 b0 01 bd
       0.14271373 -0.05743624 -0.048845634 -0.03166231
000040 b8 85 dc bc de 52 6f 3d 4d ae 25 3e 54 ee 90 3d
       -0.02691923 0.058428638 0.16179772 0.070767075
000050 9a 82 36 be 94 10 1f be 8e b0 71 3d c9 7f 0b be
       -0.17823258 -0.15533668 0.059006266 -0.13622965
000060 31 1d 26 3e 6e 0e 13 bd 16 55 2d be 4d 27 b8 bd
       0.16222073 -0.035902433 -0.16926989 -0.08991871
000070 f4 44 a7 3d 72 aa ca bd 0f 7a 66 bd cf 43 bb 3c
       0.08167449 -0.09895791 -0.056268748 0.022859482
000080 ab 08 28 bd 75 1b d7 3d 68 5e 10 3e 07 33 95 bc
       -0.04102389 0.10503284 0.14098513 -0.018212808
000090 02 42 05 3e e7 3c 96 bc 4c 3e 2f 3e 2a 1d 3e be
       0.13013461 -0.018339587 0.17113608 -0.18565813
0000a0 fa 62 8f bd 3b ef 5c 3d 7b 48 ee 3d 3b 5d 85 3d
       -0.070013 0.053939085 0.11634918 0.06511923
0000b0 24 06 23 3c 31 20 2e be e9 9f 01 be a2 f8 09 be
       0.0099501945 -0.17004468 -0.12658657 -0.13473752
0000c0 94 f2 c7 3d 24 f1 93 bd 46 57 dc bd 49 29 25 be
       0.09763065 -0.07223728 -0.107588336 -0.1612903
0000d0 60 04 c2 3d 12 c1 f3 3c 6f d5 16 bd 0e ff 23 3e
       0.09473491 0.029755149 -0.03682464 0.16015264
0000e0 ea cb 0f be 81 51 45 3e a3 60 3b bb e9 5d 2a be
       -0.14042631 0.19269373 -0.0028591536 -0.16637386
0000f0 ae 4b c3 3c 2d 9d cb 3d 9f 10 52 3d fd e5 44 be
       0.023839798 0.09942088 0.051285382 -0.19228359
000100 e2 21 42 bd 7d a7 92 bd 50 ad 9d bd 8e f5 ea bd
       -0.047395594 -0.07160852 -0.07699072 -0.11472617
000110 fe 4e 42 3e c4 f3 ac bd 83 78 fd 3c 46 1f f3 bd
       0.18975446 -0.08444932 0.030941254 -0.11871199
000120 09 f6 b8 3a e2 be 3a bc cb cd 10 be 75 88 83 bd
       0.001411141 -0.011398049 -0.14141004 -0.064225115
000130 24 5e 4e 3d 4d 23 cc 3d 86 5b 16 3e a8 72 a4 3d
       0.05038275 0.099676706 0.14683351 0.080296814
000140 35 37 43 be 3c ee 26 3e f5 1e 0a bd 51 98 1e be
       -0.19064029 0.16301817 -0.03372093 -0.15487792
000150 ab e4 11 be 66 ae fd bd 27 96 3e 3d a1 4d 6a 3d
       -0.14247386 -0.123867795 0.046529915 0.05720294
000160 96 03 24 3e 43 4b 97 3c 0a 14 b6 3d ed 25 16 3c
       0.16016993 0.018468505 0.08890541 0.009164316
000170 ad 7e 7e bd 9f d5 6e bd 54 85 ef 3d ea 29 05 3e
       -0.062132526 -0.058309194 0.11695352 0.1300427
000180 68 d9 a5 3d 3c d8 d5 bd 0e 0d f4 3d aa 4b f1 bd
       0.080981076 -0.10441634 0.119165525 -0.1178201
000190 33 d6 64 bd c9 fe 56 bc dc 06 5e bd dc b6 d0 3d
       -0.05586834 -0.013122269 -0.05420576 0.10191128
0001a0 d9 b0 ad 3b 7b 7b 01 3e 72 51 82 3c 90 ef c6 3d
       0.005300623 0.1264476 0.015907977 0.09713662
0001b0 fe c4 c2 3d 94 94 16 be 36 6d d3 3d b4 37 45 bd
       0.095102295 -0.14705116 0.10323565 -0.048148826
0001c0 37 ef 07 be 52 fe 13 3e fb 05 ba bd 25 6f f5 bd
       -0.13274847 0.14452484 -0.09083172 -0.1198409
0001d0 69 0f 27 be 05 f2 e6 3c 69 c5 31 bd 5a 6b 42 3c
       -0.16314472 0.028191576 -0.043401156 0.011866415
0001e0 0a 1f 9c bd 2f da da bc 0a 9f 22 3e 83 e7 01 3e
       -0.07623108 -0.026715366 0.15880981 0.12685971
0001f0 8f 91 90 3d 86 d9 d9 3d 7d dd 14 3e 38 10 db bc
       0.07059013 0.106371924 0.14537616 -0.026741132
000200 95 73 05 be ca 0a 60 3c 07 9d 4f 3d 23 5a 39 bd
       -0.13032372 0.013674447 0.050686862 -0.045251977
000210 27 ec 5a 3d c4 3e bd bd 4f 24 1f 3e e4 68 fd bd
       0.05344787 -0.09240487 0.15541194 -0.12373522
000220 42 b9 20 be cd ae f2 bd 6a 5b a3 3d c0 19 13 be
       -0.1569567 -0.11849747 0.0797642 -0.14365292
000230 94 7a aa 3d 8c 1c 05 be 7c 36 03 be cb c3 68 3b
       0.08324161 -0.12999171 -0.12813753 0.0035517092
000240 0c 28 1f be 81 3f 37 3e b3 20 fc 3d 0c b0 63 3c
       -0.1554262 0.17895319 0.123109244 0.013896953
000250 85 d3 32 bc b2 d7 0d bd a3 d5 cf bd 91 ab 17 3e
       -0.010914688 -0.03462953 -0.1014817 0.14811541
000260 15 92 0b bb 8e df 19 3d f9 ca a0 bd db da ad bc
       -0.0021296788 0.037566714 -0.07851214 -0.021222522
000270 20 53 ea bd d0 91 af bd 65 48 ba bd 3e 73 8a bd
       -0.11441636 -0.085727334 -0.090958394 -0.06760262
000280 eb 55 2c 3d 7f 49 b8 bc e3 d7 43 3e 80 c8 c0 3d
       0.042074125 -0.022495983 0.19125323 0.09413242
000290 b1 90 e4 3d c0 59 b1 bd 50 38 ff 3d 5c fe 35 bd
       0.1116041 -0.086596966 0.12461913 -0.04443203
0002a0 4a 62 d7 bc 16 92 02 3d 23 c5 14 be d9 5e 2e 3e
       -0.026291985 0.0318776 -0.14528327 0.17028369
0002b0 06 6c 0c 3e d2 34 ee 3d 02 c1 00 be 5e 08 90 bd
       0.13713083 0.116311684 -0.12573627 -0.07032846
0002c0 a4 05 c2 3d c0 7e c0 3d 7e da 56 bc 84 71 0f bc
       0.09473732 0.09399176 -0.013113616 -0.008755092
0002d0 c3 70 cc 3d c4 e3 30 3d 8d 80 8c bd 62 1f d7 3d
       0.09982445 0.043185964 -0.068604566 0.10504033
0002e0 fc b5 2a 3c 0f ed a3 bc 3d 80 13 3e 27 33 23 be
       0.010419365 -0.0200105 0.14404388 -0.15937482
0002f0 36 1a 82 bd 84 0c 33 be 21 ce e8 3d d6 11 26 be
       -0.063526556 -0.17485243 0.11367441 -0.16217741
000300 6e 55 04 be 63 77 38 bd 8b 8a b0 bd b8 1f 06 3e
       -0.12923214 -0.04503573 -0.08620175 0.13098037
000310 01 70 10 be 22 bd 00 be 67 69 e2 bd 48 b5 1b 3e
       -0.14105226 -0.12572148 -0.1105526 0.15205872
000320 46 27 3e be 10 6c 2a bd b1 54 10 3e 5f c1 12 3e
       -0.18569669 -0.041606963 0.14094807 0.14331578
000330 bf a3 2a bd 7b 85 37 3e 05 19 85 bd f7 c8 b2 3d
       -0.041660067 0.17922013 -0.06498913 0.08729737
000340 5c da be bd cb b0 12 3e 30 b9 22 3d b0 84 10 3e
       -0.093189925 0.14325254 0.03972739 0.14113116
000350 69 d4 03 3e 24 ae 8c bc 8f b0 28 be d5 60 bb bd
       0.12873997 -0.01717288 -0.16473602 -0.091493286
000360 93 48 4c bd fc 6d c9 3d 00 f3 0f 3e 9d d9 26 bd
       -0.0498739 0.09835431 0.14057541 -0.040734876
000370 f0 a6 92 3c e1 2f dd bb 99 b8 e3 bd e1 92 a5 3c
       0.017901868 -0.0067500924 -0.111191936 0.020211639
000380 ec ab 1d 3e 9f 11 c9 3d cb 9b dd bd d1 3f 4b bd
       0.15397614 0.09817814 -0.10820731 -0.049621407
000390 fe 53 91 bc b2 32 95 bd fd 24 27 be db f7 16 be
       -0.017740246 -0.0728506 -0.16322704 -0.14742987
0003a0 29 c6 ee 3d 0f 01 16 3e f6 64 50 3d 71 65 9e 3d
       0.1165889 0.14648841 0.050877534 0.07734192
0003b0 7c 82 b8 3d ab fc b2 bc 43 48 79 3d da 75 0b 3e
       0.09009263 -0.021848997 0.06085993 0.13619176
0003c0 c1 01 e5 3d 79 6b 1a bd ff 47 a3 bd b8 aa f2 3d
       0.11181975 -0.03770015 -0.079727165 0.11848968
0003d0 22 24 10 3d 7f cb 1e 3e fb d0 84 3d a7 68 0d 3e
       0.03519071 0.15507315 0.06485172 0.13809453
0003e0 6b bd f4 ba 8d e9 b7 bd 64 c9 a3 3d 40 ad 5b 3d
       -0.0018672174 -0.08980093 0.079973966 0.05363202
0003f0 51 97 d0 bc 53 07 0a 3e 20 5c 20 be f4 a7 fd bd
       -0.025462778 0.13479356 -0.15660143 -0.1238555

bias f4 [32]
000000 51 f1 fe 3d bf ac 81 3d 9f 2e c2 bd b1 13 2d 3e
       0.12448371 0.06331777 -0.094815485 0.16902043
000010 45 00 41 3e 36 07 3a bd 65 7a 6d bd b8 7b 20 3e
       0.18847759 -0.045417033 -0.057978053 0.15672195
000020 5f 35 c9 bc 98 7a 27 3e ff ba 24 be f2 e7 86 bc
       -0.024561582 0.1635536 -0.16086958 -0.016468022
000030 5e 9b 2e bd 73 3b 42 3d e9 75 f6 bd 40 2e 96 3d
       -0.04262864 0.047419976 -0.12034208 0.0733304
000040 07 9d 58 3d b2 72 db 3c c6 d7 bd bd c7 37 ba bd
       0.052884128 0.02678809 -0.09269671 -0.0909267
000050 af f0 cb 3d eb 31 1f be 9f ac 8a bd 1c 46 b9 bd
       0.09958016 -0.15546386 -0.06771206 -0.090465754
000060 e3 dc c9 bd 57 e6 e3 bd 80 bb fe 3c ed 2c 01 bd
       -0.09856584 -0.11127918 0.031095266 -0.031536985
000070 af de 00 be ae 13 0f 3e c6 c9 bf 3d bc 02 cf bd
       -0.12584947 0.13972351 0.09364657 -0.101079434

weight f4 [4, 32]
000000 ae 90 01 3e c1 55 17 be 7b e4 ab bd 28 40 9d 3c
       0.12652847 -0.14778806 -0.083931886 0.019195631
000010 d3 e0 d8 bd 30 2e 3b bd c5 3e 32 3d ff f2 0e be
       -0.10589757 -0.045698345 0.043516893 -0.13959883
000020 83 b0 f3 3d 2e ee d1 bd a4 c8 45 be 87 32 1c 3e
       0.11898901 -0.10250507 -0.1931482 0.1525365
000030 9d 92 3a be 66 1d 23 be ae 73 65 3b ac 22 b8 bd
       -0.18219991 -0.15929183 0.0035011577 -0.08990988
000040 2a 7c c5 3d e1 66 04 3e de c1 34 3c 68 63 be 3d
       0.09642823 0.1292987 0.01103255 0.09296304
000050 46 bf 8b 3c 3c bc d3 bd 86 3f 8b 3d 76 a2 f6 bd
       0.01705898 -0.10338637 0.067992255 -0.12042706
000060 74 2b de 3d 54 6b 29 3e 33 8e b0 b9 dc 8f 2d 3e
       0.10848132 0.16544849 -0.00033675283 0.16949409
000070 97 a2 cc bd 05 42 08 3d 2b 20 f7 bc 3f b5 3e 3e
       -0.09991949 0.033266086 -0.030166706 0.18623827
000080 af 16 96 bc 11 91 09 be 49 13 eb 39 07 11 f3 3d
       -0.018321363 -0.13434245 0.0004483706 0.11868482
000090 d1 81 7b bd ed 99 17 be 7e af 12 bd df dd fa 3c
       -0.0614031 -0.14804812 -0.035811894 0.030623375
0000a0 20 6b 09 be d1 79 52 3d 13 c7 06 3e 31 ec d2 3c
       -0.13419771 0.051385704 0.13161878 0.02574739
0000b0 41 b8 17 be 0c d1 76 bd 3d 24 1f be d6 5a d6 3c
       -0.14816381 -0.060257956 -0.15541168 0.02616636
0000c0 f3 2b 1e 3e 31 1e e2 3d 5a 1f 78 3d ff 35 e7 bd
       0.15446453 0.11040915 0.060576774 -0.11289596
0000d0 27 7c 05 bd f7 47 22 be 22 91 01 3d 80 41 a1 3d
       -0.032589104 -0.15847765 0.03163255 0.07873821
0000e0 f4 52 b6 3d 56 66 11 bd a8 79 3a be db 9e c8 bc
       0.08902541 -0.035497986 -0.1821047 -0.02448981
0000f0 d1 4d 92 bd 96 69 ef bd 9c 45 43 be 64 b4 04 3e
       -0.071437486 -0.11690061 -0.19069523 0.12959439
000100 db b2 16 3c c0 f6 d8 3d 75 ca 15 3e d3 7f 04 3c
       0.009197916 0.10593939 0.14628012 0.008087116
000110 ed f8 54 3d 7d 98 50 3e d8 b9 86 3d 10 0a 1c be
       0.051995207 0.2037067 0.06578416 -0.15238214
000120 43 1b b4 3d 86 37 ec 3d 40 c6 30 3e d7 b8 1a be
       0.08794262 0.11534028 0.17263126 -0.15109573
000130 63 8a 2e be 03 19 3e 3e 77 21 d4 3c 03 4b b6 bd
       -0.17044978 0.18564229 0.025894864 -0.08901026
000140 fb a3 17 bd 12 f3 47 3e 8d 66 15 3e 66 94 2d 3e
       -0.03702162 0.19526318 0.14589901 0.16951141
000150 1b 5a 22 3e a3 97 79 3d bc 79 26 3c fd 32 a1 bd
       0.15854685 0.060935628 0.01016086 -0.07871053
000160 aa c0 43 bd 6b 20 fd bb f9 d2 25 3e b8 71 f9 3c
       -0.04779116 -0.007724812 0.16193761 0.030449733
000170 2e 13 e9 bd e5 3a 47 bc d7 68 b5 3d 93 aa 28 be
       -0.11380611 -0.012160038 0.08857887 -0.16471319
000180 f1 8a 18 be 5d 8a a1 3c 9f 4d 1f bc 1f 46 da bd
       -0.14896752 0.019719297 -0.009723096 -0.10657906
000190 a9 59 4f be 27 7c 3c bd 1b 81 08 be 70 a0 1e be
       -0.20249046 -0.04601684 -0.133305 -0.1549089
0001a0 ca c9 25 be 1b 47 f1 bd 93 07 6c 3d 77 f2 17 be
       -0.16190258 -0.117811404 0.05762441 -0.14838587
0001b0 23 ea 53 bc 3c ec 4c be 64 05 49 3d 78 04 1c 3e
       -0.0129342405 -0.20011991 0.049077407 0.1523608
0001c0 6f e9 b7 bd 89 37 1e 3e bc 07 14 bc a2 7b 22 bd
       -0.08980071 0.15450872 -0.009035047 -0.039668687
0001d0 94 ab 28 3e 31 2e 1d 3e f2 a4 32 3d 59 23 a4 bd
       0.16471702 0.15349652 0.043614335 -0.080145545
0001e0 12 c0 eb 3d b2 b6 9d 3d 28 30 b1 bd fa 91 df bd
       0.11511244 0.07700862 -0.08651763 -0.10916515
0001f0 ea 7a 08 3e 8d ea 76 bd 41 db ac bd 33 77 4f 3d
       0.13328138 -0.06028228 -0.08440257 0.050650787

bias f4 [4]
000000 60 7f a0 3d 6e c3 4f bd f1 28 89 bc 81 a1 e4 bd
       0.07836795 -0.050723486 -0.016743155 -0.11163617
