agent.value_estimator.model (torch_old, 13484 bytes, 5 tensors)

weight f4 [32, 33]
000000 d3 65 b3 bd 3f 2a e2 bd a8 f9 88 3d 36 24 81 be
       -0.08759656 -0.11043214 0.06688243 -0.2522294
000010 a1 93 14 3e 0b 11 9f be 71 1d 24 3e 59 ec 47 bd
       0.14509441 -0.3106769 0.16026856 -0.048809383
000020 ff f4 50 be c3 39 ef 3d de 24 c5 bd 73 2b 14 3e
       -0.20405959 0.11680939 -0.096261725 0.144697
000030 7b cc b5 bd 91 9c 87 3d 3c e9 e0 bd d1 db a3 3d
       -0.08876892 0.066216595 -0.10981986 0.08000911
000040 43 ac 53 3e 83 09 c0 bd 14 2a 20 3e 7e a9 27 be
       0.20671181 -0.09376814 0.15641052 -0.1637325
000050 af 13 a3 bd c4 85 09 bd 88 e9 d1 bd a8 40 58 bb
       -0.07962739 -0.033574834 -0.10249621 -0.0032997523
000060 6d 27 7c bc c3 cf dd 3d 14 eb d5 3d f6 c0 ec bd
       -0.015390259 0.10830643 0.10445228 -0.11560242
000070 eb e0 63 be 75 c0 c0 bd 97 03 35 bd dc 64 f7 bd
       -0.22253768 -0.09411708 -0.044192877 -0.12079784
000080 84 fd 69 be 38 e5 18 be 4f 8f 22 3e 21 31 1c bc
       -0.22850615 -0.1493119 0.1587498 -0.009533198
000090 9d 2a 40 bc 8b f4 82 bd 13 52 3d be 55 23 6e be
       -0.01172891 -0.06394299 -0.1848834 -0.23255666
0000a0 80 ee c3 3d 5f b3 80 bc fd 8b 18 be d0 35 f6 3d
       0.09566975 -0.01571053 -0.14897151 0.12021983
0000b0 80 a9 0d be 27 c7 0a be 77 0b 84 bd f3 da fb bd
       -0.1383419 -0.13552533 -0.06447499 -0.122976206
0000c0 41 e2 88 3d 6e 14 09 3e e0 af 68 be ed 3b 8b 3e
       0.066837795 0.133867 -0.22723341 0.27194157
0000d0 75 43 c6 be 35 bb db 3d 0f 4c a2 bd e7 92 e7 bc
       -0.3872334 0.10729066 -0.07924663 -0.02826829
0000e0 ea d1 91 3d 20 3b 42 3d 00 f7 1c be fb 38 84 3c
       0.07120116 0.047419667 -0.15328598 0.016140452
0000f0 29 3f c8 bd f1 59 f6 3d 64 21 60 bd 73 97 97 bd
       -0.09777672 0.12028874 -0.054719344 -0.074019335
000100 ea e4 97 3d 6f 09 36 3e 24 37 20 bd 50 0d 8e bd
       0.07416709 0.17777036 -0.039115086 -0.06936133
000110 f7 1d 3a 3e 1b 8c 90 3d 55 47 1a bc 26 3b 5f bd
       0.18175493 0.07057973 -0.009416421 -0.054499768
000120 91 1b 16 bd 85 f7 a1 3d 21 c3 c2 3d 5b 75 cb 3d
       -0.036647383 0.07908539 0.09509874 0.09934493
000130 95 4a 1f be 8c cf d0 bc cc ef 00 ba 2f f8 08 3b
       -0.15555795 -0.025489591 -0.0004918545 0.0020899882
000140 6e 59 1e be d8 44 94 3c ea f7 b9 3d 59 ad 56 3d
       -0.15463802 0.018099234 0.09080489 0.05241141
000150 c6 05 f7 3d 7a 0e 03 3d a4 f4 51 be 07 c7 07 3e
       0.12061648 0.031996228 -0.20503479 0.13259517
000160 99 d8 8d 3d 6c 76 9a bd 88 59 53 3b b1 ae 0b bd
       0.06926078 -0.075421184 0.003224941 -0.034102146
000170 e7 fe 51 bd de 1f 04 3c 55 ac b1 3d 00 49 3b 3a
       -0.051268484 0.008064238 0.08675448 0.0007144362
000180 34 56 00 3e 04 89 71 3d 96 ec 3c be 06 61 a4 bd
       0.12532884 0.05896856 -0.18449625 -0.08026318
000190 c5 b5 96 3d 26 db 6e bd 49 d4 ab 3d 47 e9 1f be
       0.073588885 -0.058314465 0.083900996 -0.15616332
0001a0 87 1e 5a 3e d8 65 6c bc a0 8b 82 bd 13 f6 0f 3e
       0.21300708 -0.014428578 -0.063742876 0.14058714
0001b0 73 ca 4c 3c 7e 78 ac 3d f1 57 ff bd d3 a2 76 38
       0.0124994395 0.084214196 -0.12467945 5.8802612e-05
0001c0 c5 b8 15 3e 8d 21 6c 3d b4 f8 00 bd f0 2d 3d 3e
       0.14621265 0.057649184 -0.03148718 0.18474555
0001d0 25 5b 67 3d cf d1 06 3e 0b 57 08 3e 2e ef f3 3d
       0.056483407 0.13165973 0.13314454 0.11910854
0001e0 2f 14 4d bd c2 3e cc 3d 21 1f 68 3e 97 85 58 3c
       -0.050068077 0.099729076 0.22668125 0.013215444
0001f0 ff 76 31 3c e8 18 88 3e 96 40 b2 bb a5 22 13 3e
       0.010831594 0.26581502 -0.005439828 0.14368685
000200 90 af 2a bc 9c 1e e6 bd 5c 6f 07 3e 13 45 3b 3e
       -0.010417834 -0.11236307 0.13226074 0.18288068
000210 95 a1 aa bc 4a 68 a3 3d d0 b0 ae 3d bc cf c9 bd
       -0.020829001 0.07978876 0.08529818 -0.09854075
000220 1e ee 30 3e 99 53 4d 3d f4 bd a6 bd d4 a5 e1 bd
       0.17278334 0.050128553 -0.081416994 -0.11017957
000230 35 8e 38 be 70 f1 e1 3d c6 40 22 3e e4 13 0d bd
       -0.18022998 0.11032379 0.15845022 -0.034442797
000240 9d ff 9f bd a9 96 43 be 7f 73 a0 bd af a9 d3 bd
       -0.07812426 -0.19100441 -0.07834529 -0.10335099
000250 69 35 ef bb 0e 55 9f 3d 70 e1 5f 3d 17 32 23 be
       -0.007300068 0.07779895 0.054658353 -0.15937077
000260 99 e2 aa 3d 2e f1 2e 3d 28 87 1a 3e 75 48 19 3e
       0.08344001 0.042710476 0.1509062 0.14969046
000270 5b 54 8f bd 4b 26 c0 3c c2 f9 0d be 89 e7 b6 bd
       -0.069985114 0.02345576 -0.13864806 -0.089308806
000280 12 77 10 be 02 e6 17 3e 2e 55 32 3e 00 00 22 36
       -0.14107922 0.14833835 0.17415306 2.413988e-06
000290 3a c9 1a 3e 58 84 8e bd 82 73 d7 bd ed 17 1f bd
       0.15115824 -0.06958836 -0.10520078 -0.038841177
0002a0 d0 db 5e be 0c 76 39 bd 9c 02 92 bc 9e 43 6c bd
       -0.2176354 -0.045278594 -0.01782351 -0.057681672
0002b0 6c 03 a2 ba fb 5e 45 39 7b 4c 19 3d 43 7b c3 3c
       -0.0012360639 0.00018822767 0.037426453 0.023862487
0002c0 f6 84 3f bd 6e 8e 81 ba 02 23 8c bc 8b a3 37 bd
       -0.04675766 -0.0009884366 -0.017106537 -0.0448337
0002d0 f0 c9 59 be 32 61 1b 3e e3 31 03 3e b3 01 2f 3e
       -0.2126844 0.15173796 0.12811999 0.17090492
0002e0 c5 59 03 be 66 9c 02 3e 60 54 46 3e cd 46 e7 3b
       -0.12827213 0.12754974 0.19368124 0.0070580007
0002f0 b4 5c 8d bc 75 18 bf 3d 08 f6 e2 39 74 45 48 3d
       -0.017256118 0.09330837 0.00043289387 0.04889436
000300 62 7a 5e bc 7f 25 b8 bd 46 3e 72 bd bb 91 17 3c
       -0.013578983 -0.08991527 -0.05914142 0.009251053
000310 00 1f a9 3c de 79 90 bd 36 04 18 be 69 65 d0 3d
       0.020644665 -0.07054494 -0.14845356 0.101755925
000320 3e 5c 65 bd 98 ef ee bd c8 4c 28 3e 60 9b 0b be
       -0.055996172 -0.11666793 0.1643554 -0.1363349
000330 e3 68 1d be 3a 0b 67 3e f1 4c 28 3c 34 54 f8 bd
       -0.15372042 0.22562876 0.0102722505 -0.121254355
000340 c9 62 c9 bd 97 eb 93 bc 6e 32 ff 3d 4e cd 80 bd
       -0.09833295 -0.018056674 0.124607906 -0.06289159
000350 fe d0 42 3e d9 41 2f 3e 94 3b 40 3e 3c a8 9a 3e
       0.19025037 0.17114963 0.18772727 0.30206478
000360 14 10 95 3e 8c b6 91 bd c4 fd f2 3c 51 09 09 bd
       0.2911383 -0.07114896 0.02966202 -0.03345615
000370 50 25 51 3e d0 bb a6 bd d2 81 98 3d 6e cc 1e be
       0.2042439 -0.08141291 0.07446636 -0.15507671
000380 bc 0d 9c 3c aa 4e 88 3c 20 46 48 bd c8 0a 09 3e
       0.019049518 0.016639072 -0.048895 0.13383019
000390 4d ee a5 3d 36 af 15 3e f4 0c 99 3d 4c 5d 4b 3e
       0.08102093 0.14617619 0.07473174 0.19859809
0003a0 53 88 0d 3e fd 5b 56 bd 55 9d 30 3e 86 b7 91 bd
       0.13821535 -0.05233382 0.17247517 -0.071150824
0003b0 50 41 94 3c 79 c4 eb bd bc 7d ce 3d 52 32 a0 3d
       0.01809755 -0.115120836 0.10082576 0.07822098
0003c0 d8 bf 26 3e f7 bd 86 3d b6 69 19 3e 65 54 6c 3d
       0.1628412 0.06579202 0.14981732 0.057697672
0003d0 d2 9e 93 3c cf cc 00 be cd 15 13 be b9 a5 6a 3c
       0.018020067 -0.12578128 -0.14363785 0.014321738
0003e0 03 81 b2 bc a1 fa bc 3d e0 81 8d be 1a bf fc bc
       -0.021790033 0.09227491 -0.2763815 -0.030852843
0003f0 0a 4d 8e bd 58 4e 09 be a1 2e f0 bc 42 a3 60 3d
       -0.06948288 -0.13408792 -0.02931911 0.054843195

bias f4 [32]
000000 ca 30 e5 bd 45 58 b4 3d 3f c4 f6 3d fd 15 aa 3d
       -0.111909464 0.088058986 0.1204915 0.08304975
000010 a7 10 3b bd 35 bf a8 3b 5d 23 22 3e 8d 45 ae 3d
       -0.045670178 0.005149747 0.15833803 0.085093595
000020 ae 9e fc ba 1e b2 49 be a6 eb c7 3d de b3 f8 bd
       -0.0019273364 -0.19696853 0.09761743 -0.12143682
000030 d1 40 15 3e 35 11 23 bd 8c de 9e 3c 14 fc 47 bd
       0.14575507 -0.03981133 0.019393228 -0.048824385
000040 fc be 09 3d c3 31 78 bd 87 bc ed bc e9 31 99 3c
       0.033629403 -0.06059433 -0.02902056 0.018700557
000050 75 9c 1a 3d d1 15 d0 3d dc 3a 22 3c 6b a1 31 3e
       0.037746865 0.10160411 0.0099017285 0.17346732
000060 fb 06 2d 3e 19 c8 0c bc f0 d9 fe bd 1a a1 f9 3d
       0.16897194 -0.008592629 -0.12443912 0.12188931
000070 c1 a9 04 3e d0 2b b6 3c c7 2f a7 bd da 1f 46 3e
       0.12955381 0.022237688 -0.0816341 0.19348088

weight f4 [32, 32]
000000 52 a0 0d 3d b5 e1 25 bd 87 6c 4c be 30 b6 75 3e
       0.03457672 -0.040498454 -0.19963275 0.2399528
000010 a6 d5 15 3e 67 4d b0 bd 22 03 03 bd ec ea 04 be
       0.14632282 -0.08608513 -0.03198541 -0.1298024
000020 9c 1a 06 bd 20 e8 de 3d 02 0a ea bd b7 a1 44 3e
       -0.03274022 0.10884118 -0.1142769 0.19202314
000030 92 f6 c8 bb 3b 41 0b 3b 12 8a 59 3e 4a 68 f8 bd
       -0.006132909 0.0021248597 0.21244076 -0.121292666
000040 4f 5d c9 bd c3 50 df bc 27 94 a4 3d 73 c2 40 3c
       -0.0983225 -0.02726019 0.0803607 0.01176511
000050 be c2 1f 3e 7c 42 76 3d ce 64 0e be 7c 1c dc bd
       0.15601632 0.060122 -0.13905641 -0.107476205
000060 75 06 1e bd 94 76 79 be 3e 2a 1e bc 67 1f b8 3d
       -0.038580377 -0.2436164 -0.009653626 0.089903645
000070 74 9d f7 3c a4 5d dc bd 04 a6 9e 3d 13 2a 18 3e
       0.030226447 -0.10760048 0.07746509 0.148598
000080 b1 59 12 be 03 bd 1a 3e b1 28 ad 3b e2 78 6e bd
       -0.14292027 0.15111165 0.005284392 -0.05822075
000090 b3 42 ac 3d 18 72 a2 bc c8 c7 8b 3d 53 51 49 be
       0.08411159 -0.019829795 0.068252146 -0.19659929
0000a0 66 c8 06 3e 2f 78 f1 bd 76 18 1c 3e 00 6f a8 bd
       0.13162383 -0.11790501 0.15243706 -0.082242966
0000b0 7b 9f c2 bd b5 b4 03 be ed c0 b0 bd 7c 3f b0 bd
       -0.09503075 -0.12861903 -0.08630548 -0.08605859
0000c0 7d d3 a1 3d 14 80 30 be 2b 0e 81 bd 00 9b bb bb
       0.07901666 -0.17236358 -0.063015305 -0.0057252645
0000d0 f0 7b d7 bd 44 30 8b bd d9 32 8d 3c 5f 5e b9 3d
       -0.10521686 -0.06796315 0.01723616 0.09051203
0000e0 b6 f1 4c bd 45 80 2c 3d 66 30 1d 3e ad 0f 03 3e
       -0.0500352 0.042114515 0.15350494 0.12798949
0000f0 ad a7 ec 3d 8c a0 78 bd 9b 64 25 3c b5 42 00 bd
       0.11555419 -0.060699984 0.010094787 -0.031313617
000100 c0 8c 23 3e 08 d3 8b 3d f9 aa ab 3d 3c 28 10 be
       0.1597166 0.068273604 0.0838222 -0.14077848
000110 fe 27 27 3d 46 1c b2 3c 55 d5 5a 3e 4b 24 02 3e
       0.040809624 0.021741997 0.21370442 0.12709157
000120 4e bf 48 3c e0 00 db 3d 16 41 94 bd 80 88 13 3e
       0.012252642 0.10693526 -0.07238977 0.1440754
000130 70 c0 ef 3d 81 92 d7 3d 03 0e 11 be b7 e0 16 bc
       0.117066264 0.1052599 -0.14165501 -0.00920885
000140 c7 f4 87 3c 66 91 38 bc a5 52 60 3e 50 96 4a bb
       0.016596211 -0.011265134 0.21906526 -0.0030912347
000150 ad c3 84 bd e7 ef 3f 3e 27 46 5e 3d df 1e ff 3d
       -0.06482635 0.18743859 0.05426612 0.1245706
000160 50 4d 06 bd 32 4a ef 3d 9f 0f ac 3e 84 df 0b 3e
       -0.032788575 0.116840735 0.33605668 0.13659483
000170 81 fd 6a 3d c4 ff 06 be 83 5c a4 bc cb 84 91 bc
       0.057370666 -0.13183504 -0.020063644 -0.017763516
000180 a3 e7 cc bc 82 c4 29 be f4 eb 3c be 1c 32 ee 3c
       -0.025012797 -0.16578868 -0.18449384 0.029076628
000190 1f 5e 1b be fa 53 19 3d 60 59 2d 3c db b7 cd bd
       -0.15172623 0.037433602 0.010580391 -0.10044833
0001a0 88 e0 d6 bd 04 cd 8e 3d c6 59 2e be 9f a3 22 be
       -0.10492045 0.069726974 -0.17026433 -0.15882729
0001b0 75 ef 8f 3d b7 00 39 3d c1 21 df 3d a0 40 ac bd
       0.07028095 0.045166697 0.1089511 -0.08410764
0001c0 36 38 75 3d f2 81 28 3c 91 7b e2 3a e5 72 e9 3d
       0.05986806 0.010284888 0.0017279257 0.113988675
0001d0 25 4f 04 be 86 16 50 3d 26 a5 02 3c c8 b2 dd bc
       -0.12920816 0.05080273 0.007973945 -0.027062789
0001e0 a5 c7 d8 3a 12 2b 53 bc 41 f2 e9 bd f7 5c 66 bd
       0.0016538991 -0.012888687 -0.114231594 -0.056241002
0001f0 5f 33 1b be 12 c2 17 be 18 68 ef bd 51 2f 01 3e
       -0.15156315 -0.14820126 -0.11689776 0.12615706
000200 bd 6b b9 bc 08 fc f1 3c cd 64 03 be cf 34 70 be
       -0.022634381 0.029539123 -0.12831421 -0.23457645
000210 f5 cf 4e 3e 99 c2 03 3e 7e 2f b7 3d 2c 70 17 be
       0.20196517 0.12867202 0.08944605 -0.14788884
000220 15 e4 37 3e 57 58 21 3d ae d6 16 be bb c0 09 be
       0.179581 0.039390888 -0.14730331 -0.13452427
000230 32 60 e9 3d 80 38 83 be b0 7b 02 3c f4 64 28 3d
       0.11395301 -0.25629044 0.00796406 0.0411119
000240 71 8a 82 bd 4c 32 a1 3d 0b fb 98 bd 3a 63 e2 bd
       -0.06374062 0.078709215 -0.07469758 -0.11054082
000250 c7 b7 9c 3d 01 ff 95 bc 6f 12 70 be 5c a5 6d bd
       0.0765224 -0.018310072 -0.23444532 -0.058019027
000260 5b a9 11 3e eb 5e 0f be 6c 75 a8 bd a2 13 4a bd
       0.1422476 -0.14001052 -0.082255214 -0.04933513
000270 c5 09 c5 3c db 6c 62 be 15 2c a8 3d fd 1f 6b bd
       0.02405251 -0.22111838 0.08211533 -0.057403553
000280 f3 5b 34 3c 41 06 38 3e 29 09 19 3d 60 32 91 bd
       0.0110082505 0.17971136 0.03736225 -0.070896864
000290 6d 77 f2 3c b6 59 b2 bd 57 b9 20 3e 92 58 0a 3e
       0.029597962 -0.08708517 0.15695702 0.1351035
0002a0 fe de a8 bd cd f8 43 3e 42 fa 13 3e 12 82 b7 bd
       -0.082456574 0.19137879 0.14450935 -0.08960356
0002b0 fd 6d 97 bd a8 31 72 3c 58 8b ec 3c b5 22 0a 3e
       -0.073940255 0.014782347 0.028875038 0.13489802
0002c0 ec 08 78 bd 8d 0c fa 3d 73 34 a6 bb 3b f7 d7 bd
       -0.060555384 0.12209425 -0.0050721704 -0.10545202
0002d0 29 25 f5 3d cb 21 09 3d 05 98 10 3e 8a 38 29 bd
       0.11969978 0.033479493 0.14120491 -0.041313685
0002e0 42 77 07 3d 4c 52 f8 bd 33 c3 69 3e d4 f1 00 3e
       0.033072717 -0.12125072 0.22828369 0.1259225
0002f0 09 6e 1b 3e 16 71 05 3e da 3b 82 3d 14 02 6c 3d
       0.15178694 0.1303142 0.06359072 0.05761917
000300 df 35 01 3e c2 72 c8 3d 2f 96 25 be e9 20 e8 3d
       0.12618206 0.09787513 -0.16170572 0.11334402
000310 c3 1e bf 3d 69 6f ca bd 72 34 24 bc 63 cb 88 bd
       0.09332039 -0.09884531 -0.01002227 -0.06679418
000320 6c 26 41 3e c0 72 ea bd e6 c8 3d bd 95 d1 ff bd
       0.18862313 -0.11447668 -0.04633417 -0.124911465
000330 cb 14 b6 3d 64 fd fc bc 6f 90 2f be 45 9f ec bd
       0.08890685 -0.030882545 -0.17144941 -0.11553816
000340 3e b5 43 be 29 74 89 bc 75 95 b1 3d cc 07 21 3e
       -0.19112107 -0.016779022 0.08671085 0.1572563
000350 a4 6a 32 3e 4f bb 8f 3c 76 89 e0 3d 1d 06 81 3c
       0.17423493 0.01754537 0.109637186 0.015749985
000360 f8 f5 86 bc d9 7a 36 be bd ce 09 bd 8c 28 b9 bd
       -0.016474709 -0.178203 -0.033644427 -0.09040937
000370 b7 fb 4f 3d 73 8f 9b 3d 0a 7d 64 bd 33 a1 0d be
       0.050777163 0.0759572 -0.05578331 -0.13831024
000380 55 31 ed 3d f3 1a fb bd a9 6a 08 be 74 05 7a 3e
       0.11581675 -0.122609995 -0.13321938 0.24416143
000390 53 2d 05 3d fd 7a ed 3d 13 06 96 bd 38 fa 64 3c
       0.032513928 0.11595724 -0.07325377 0.013975672
0003a0 d4 ce 3f 3e 77 f5 fa 3d e4 06 91 3d c9 20 17 3d
       0.18731242 0.1225385 0.070813924 0.0368965
0003b0 4a 2f 18 be 55 d0 8b 3d fb b2 f7 3d 81 4f 3f 3c
       -0.1486179 0.068268456 0.12094685 0.01167667
0003c0 4a 18 f4 bc 00 54 1e be 5b 51 1c 3e 50 2d 40 3c
       -0.029796738 -0.15461731 0.1526541 0.011729553
0003d0 96 05 00 3e c9 1b 74 3b e9 81 b7 bd 86 51 46 be
       0.12502131 0.0037248007 -0.08960325 -0.19367036
0003e0 d2 15 45 3e 3d 8d 3b be 32 6a 20 be 4e 84 1e 3e
       0.19246605 -0.18315597 -0.1566551 0.15480158
0003f0 b6 1f 51 be 02 7b 15 be a3 10 09 3e 18 43 d7 bc
       -0.20422253 -0.14597705 0.13385253 -0.02627711

bias f4 [32]
000000 9f c1 1f 3e 22 d8 5f 3c be d6 c4 bd 06 6d 8d bd
       0.15601204 0.01366237 -0.09611271 -0.0690556
000010 76 4b 8a 3d 8a 40 ca bd 1a 73 0a 3e 8d d1 75 bd
       0.06752674 -0.09875591 0.1352047 -0.060014296
000020 d0 e1 64 bd 46 ef d8 bc 7a 79 d5 bd 42 82 07 be
       -0.055879414 -0.026481282 -0.104235604 -0.13233283
000030 ba 8f a5 3c fe 8a 24 3e de d1 c4 bd 0f 63 c6 bd
       0.020210136 0.16068646 -0.096103415 -0.09686863
000040 d6 af 34 3e 98 98 0b be b8 97 80 3d fc 96 15 be
       0.17645201 -0.13632429 0.06278938 -0.14608377
000050 18 c0 04 3e 4a fc 0c be c2 9d ec 3d 89 83 33 3e
       0.12963903 -0.13768116 0.115535274 0.17530645
000060 d6 eb ad bd 9a 0f 80 3d ae d4 62 bd db 78 2e 3e
       -0.08492248 0.06252976 -0.05537861 0.1703829
000070 9b c0 84 3d af e5 c1 bc 90 b0 17 be 61 a5 9b bb
       0.06482049 -0.023669092 -0.14813447 -0.0047499393

weight f4 [1, 32]
000000 88 76 7c 3e 9b f3 b0 bc 9a 9b 11 be b2 21 5e 3d
       0.24654591 -0.021600535 -0.14219514 0.054231353
000010 b5 b7 56 3e e8 a4 82 bd ac 44 93 3d 5f d9 4a 3e
       0.20968516 -0.063791096 0.071908325 0.19809483
000020 d5 eb 80 be 5d 76 ad 3c 52 5e 83 be 66 cc 78 3e
       -0.25179926 0.021174604 -0.25657898 0.24296722
000030 f8 4c 43 be 90 af 99 3d 7f df 32 be b9 e7 63 be
       -0.1907233 0.07504189 -0.1746807 -0.22256364
000040 dd de c3 3d 20 e0 3f 3c ed 3d 46 3e 71 51 86 3e
       0.09563992 0.01171115 0.1935956 0.2623401
000050 25 14 46 3e fe f3 8f 3e 38 74 95 3e c0 7a 1d 3e
       0.19343622 0.2811584 0.2919023 0.15378857
000060 61 22 5a be d3 55 3d be ae a8 d9 3d 1e d2 24 be
       -0.21302177 -0.1848977 0.10627876 -0.16095778
000070 dd ee 17 be d4 fa ae be f8 7c 05 be a4 a5 3f be
       -0.14837213 -0.34175742 -0.13035953 -0.1871553
